Model: "densenet121"
_____________________________________________________________________________________________
Layer (type)                                     Output Shape                     Param #    
=============================================================================================
input_1 (InputLayer)                             [(None, 224, 224, 3)]            0          
_____________________________________________________________________________________________
lambda (Lambda)                                  (None, 224, 224, 3)              0          
_____________________________________________________________________________________________
zero_padding2d (ZeroPadding2D)                   (None, 230, 230, 3)              0          
_____________________________________________________________________________________________
lambda_1 (Lambda)                                (None, 230, 230, 3)              0          
_____________________________________________________________________________________________
conv1/conv (Conv2D)                              (None, 112, 112, 64)             9408       
_____________________________________________________________________________________________
lambda_2 (Lambda)                                (None, 112, 112, 64)             0          
_____________________________________________________________________________________________
conv1/bn (BatchNormalization)                    (None, 112, 112, 64)             256        
_____________________________________________________________________________________________
lambda_3 (Lambda)                                (None, 112, 112, 64)             0          
_____________________________________________________________________________________________
conv1/relu (Activation)                          (None, 112, 112, 64)             0          
_____________________________________________________________________________________________
lambda_4 (Lambda)                                (None, 112, 112, 64)             0          
_____________________________________________________________________________________________
zero_padding2d_1 (ZeroPadding2D)                 (None, 114, 114, 64)             0          
_____________________________________________________________________________________________
lambda_5 (Lambda)                                (None, 114, 114, 64)             0          
_____________________________________________________________________________________________
pool1 (MaxPooling2D)                             (None, 56, 56, 64)               0          
_____________________________________________________________________________________________
lambda_6 (Lambda)                                (None, 56, 56, 64)               0          
_____________________________________________________________________________________________
conv2_block1_0_bn (BatchNormalization)           (None, 56, 56, 64)               256        
_____________________________________________________________________________________________
lambda_7 (Lambda)                                (None, 56, 56, 64)               0          
_____________________________________________________________________________________________
conv2_block1_0_relu (Activation)                 (None, 56, 56, 64)               0          
_____________________________________________________________________________________________
lambda_8 (Lambda)                                (None, 56, 56, 64)               0          
_____________________________________________________________________________________________
conv2_block1_1_conv (Conv2D)                     (None, 56, 56, 128)              8192       
_____________________________________________________________________________________________
lambda_9 (Lambda)                                (None, 56, 56, 128)              0          
_____________________________________________________________________________________________
conv2_block1_1_bn (BatchNormalization)           (None, 56, 56, 128)              512        
_____________________________________________________________________________________________
lambda_10 (Lambda)                               (None, 56, 56, 128)              0          
_____________________________________________________________________________________________
conv2_block1_1_relu (Activation)                 (None, 56, 56, 128)              0          
_____________________________________________________________________________________________
lambda_11 (Lambda)                               (None, 56, 56, 128)              0          
_____________________________________________________________________________________________
conv2_block1_2_conv (Conv2D)                     (None, 56, 56, 32)               36864      
_____________________________________________________________________________________________
lambda_12 (Lambda)                               (None, 56, 56, 32)               0          
_____________________________________________________________________________________________
conv2_block1_concat (Concatenate)                (None, 56, 56, 96)               0                                                                                                       
_____________________________________________________________________________________________
lambda_13 (Lambda)                               (None, 56, 56, 96)               0          
_____________________________________________________________________________________________
conv2_block2_0_bn (BatchNormalization)           (None, 56, 56, 96)               384        
_____________________________________________________________________________________________
lambda_14 (Lambda)                               (None, 56, 56, 96)               0          
_____________________________________________________________________________________________
conv2_block2_0_relu (Activation)                 (None, 56, 56, 96)               0          
_____________________________________________________________________________________________
lambda_15 (Lambda)                               (None, 56, 56, 96)               0          
_____________________________________________________________________________________________
conv2_block2_1_conv (Conv2D)                     (None, 56, 56, 128)              12288      
_____________________________________________________________________________________________
lambda_16 (Lambda)                               (None, 56, 56, 128)              0          
_____________________________________________________________________________________________
conv2_block2_1_bn (BatchNormalization)           (None, 56, 56, 128)              512        
_____________________________________________________________________________________________
lambda_17 (Lambda)                               (None, 56, 56, 128)              0          
_____________________________________________________________________________________________
conv2_block2_1_relu (Activation)                 (None, 56, 56, 128)              0          
_____________________________________________________________________________________________
lambda_18 (Lambda)                               (None, 56, 56, 128)              0          
_____________________________________________________________________________________________
conv2_block2_2_conv (Conv2D)                     (None, 56, 56, 32)               36864      
_____________________________________________________________________________________________
lambda_19 (Lambda)                               (None, 56, 56, 32)               0          
_____________________________________________________________________________________________
conv2_block2_concat (Concatenate)                (None, 56, 56, 128)              0                                                                                                       
_____________________________________________________________________________________________
lambda_20 (Lambda)                               (None, 56, 56, 128)              0          
_____________________________________________________________________________________________
conv2_block3_0_bn (BatchNormalization)           (None, 56, 56, 128)              512        
_____________________________________________________________________________________________
lambda_21 (Lambda)                               (None, 56, 56, 128)              0          
_____________________________________________________________________________________________
conv2_block3_0_relu (Activation)                 (None, 56, 56, 128)              0          
_____________________________________________________________________________________________
lambda_22 (Lambda)                               (None, 56, 56, 128)              0          
_____________________________________________________________________________________________
conv2_block3_1_conv (Conv2D)                     (None, 56, 56, 128)              16384      
_____________________________________________________________________________________________
lambda_23 (Lambda)                               (None, 56, 56, 128)              0          
_____________________________________________________________________________________________
conv2_block3_1_bn (BatchNormalization)           (None, 56, 56, 128)              512        
_____________________________________________________________________________________________
lambda_24 (Lambda)                               (None, 56, 56, 128)              0          
_____________________________________________________________________________________________
conv2_block3_1_relu (Activation)                 (None, 56, 56, 128)              0          
_____________________________________________________________________________________________
lambda_25 (Lambda)                               (None, 56, 56, 128)              0          
_____________________________________________________________________________________________
conv2_block3_2_conv (Conv2D)                     (None, 56, 56, 32)               36864      
_____________________________________________________________________________________________
lambda_26 (Lambda)                               (None, 56, 56, 32)               0          
_____________________________________________________________________________________________
conv2_block3_concat (Concatenate)                (None, 56, 56, 160)              0                                                                                                       
_____________________________________________________________________________________________
lambda_27 (Lambda)                               (None, 56, 56, 160)              0          
_____________________________________________________________________________________________
conv2_block4_0_bn (BatchNormalization)           (None, 56, 56, 160)              640        
_____________________________________________________________________________________________
lambda_28 (Lambda)                               (None, 56, 56, 160)              0          
_____________________________________________________________________________________________
conv2_block4_0_relu (Activation)                 (None, 56, 56, 160)              0          
_____________________________________________________________________________________________
lambda_29 (Lambda)                               (None, 56, 56, 160)              0          
_____________________________________________________________________________________________
conv2_block4_1_conv (Conv2D)                     (None, 56, 56, 128)              20480      
_____________________________________________________________________________________________
lambda_30 (Lambda)                               (None, 56, 56, 128)              0          
_____________________________________________________________________________________________
conv2_block4_1_bn (BatchNormalization)           (None, 56, 56, 128)              512        
_____________________________________________________________________________________________
lambda_31 (Lambda)                               (None, 56, 56, 128)              0          
_____________________________________________________________________________________________
conv2_block4_1_relu (Activation)                 (None, 56, 56, 128)              0          
_____________________________________________________________________________________________
lambda_32 (Lambda)                               (None, 56, 56, 128)              0          
_____________________________________________________________________________________________
conv2_block4_2_conv (Conv2D)                     (None, 56, 56, 32)               36864      
_____________________________________________________________________________________________
lambda_33 (Lambda)                               (None, 56, 56, 32)               0          
_____________________________________________________________________________________________
conv2_block4_concat (Concatenate)                (None, 56, 56, 192)              0                                                                                                       
_____________________________________________________________________________________________
lambda_34 (Lambda)                               (None, 56, 56, 192)              0          
_____________________________________________________________________________________________
conv2_block5_0_bn (BatchNormalization)           (None, 56, 56, 192)              768        
_____________________________________________________________________________________________
lambda_35 (Lambda)                               (None, 56, 56, 192)              0          
_____________________________________________________________________________________________
conv2_block5_0_relu (Activation)                 (None, 56, 56, 192)              0          
_____________________________________________________________________________________________
lambda_36 (Lambda)                               (None, 56, 56, 192)              0          
_____________________________________________________________________________________________
conv2_block5_1_conv (Conv2D)                     (None, 56, 56, 128)              24576      
_____________________________________________________________________________________________
lambda_37 (Lambda)                               (None, 56, 56, 128)              0          
_____________________________________________________________________________________________
conv2_block5_1_bn (BatchNormalization)           (None, 56, 56, 128)              512        
_____________________________________________________________________________________________
lambda_38 (Lambda)                               (None, 56, 56, 128)              0          
_____________________________________________________________________________________________
conv2_block5_1_relu (Activation)                 (None, 56, 56, 128)              0          
_____________________________________________________________________________________________
lambda_39 (Lambda)                               (None, 56, 56, 128)              0          
_____________________________________________________________________________________________
conv2_block5_2_conv (Conv2D)                     (None, 56, 56, 32)               36864      
_____________________________________________________________________________________________
lambda_40 (Lambda)                               (None, 56, 56, 32)               0          
_____________________________________________________________________________________________
conv2_block5_concat (Concatenate)                (None, 56, 56, 224)              0                                                                                                       
_____________________________________________________________________________________________
lambda_41 (Lambda)                               (None, 56, 56, 224)              0          
_____________________________________________________________________________________________
conv2_block6_0_bn (BatchNormalization)           (None, 56, 56, 224)              896        
_____________________________________________________________________________________________
lambda_42 (Lambda)                               (None, 56, 56, 224)              0          
_____________________________________________________________________________________________
conv2_block6_0_relu (Activation)                 (None, 56, 56, 224)              0          
_____________________________________________________________________________________________
lambda_43 (Lambda)                               (None, 56, 56, 224)              0          
_____________________________________________________________________________________________
conv2_block6_1_conv (Conv2D)                     (None, 56, 56, 128)              28672      
_____________________________________________________________________________________________
lambda_44 (Lambda)                               (None, 56, 56, 128)              0          
_____________________________________________________________________________________________
conv2_block6_1_bn (BatchNormalization)           (None, 56, 56, 128)              512        
_____________________________________________________________________________________________
lambda_45 (Lambda)                               (None, 56, 56, 128)              0          
_____________________________________________________________________________________________
conv2_block6_1_relu (Activation)                 (None, 56, 56, 128)              0          
_____________________________________________________________________________________________
lambda_46 (Lambda)                               (None, 56, 56, 128)              0          
_____________________________________________________________________________________________
conv2_block6_2_conv (Conv2D)                     (None, 56, 56, 32)               36864      
_____________________________________________________________________________________________
lambda_47 (Lambda)                               (None, 56, 56, 32)               0          
_____________________________________________________________________________________________
conv2_block6_concat (Concatenate)                (None, 56, 56, 256)              0                                                                                                       
_____________________________________________________________________________________________
lambda_48 (Lambda)                               (None, 56, 56, 256)              0          
_____________________________________________________________________________________________
pool2_bn (BatchNormalization)                    (None, 56, 56, 256)              1024       
_____________________________________________________________________________________________
lambda_49 (Lambda)                               (None, 56, 56, 256)              0          
_____________________________________________________________________________________________
pool2_relu (Activation)                          (None, 56, 56, 256)              0          
_____________________________________________________________________________________________
lambda_50 (Lambda)                               (None, 56, 56, 256)              0          
_____________________________________________________________________________________________
pool2_conv (Conv2D)                              (None, 56, 56, 128)              32768      
_____________________________________________________________________________________________
lambda_51 (Lambda)                               (None, 56, 56, 128)              0          
_____________________________________________________________________________________________
pool2_pool (AveragePooling2D)                    (None, 28, 28, 128)              0          
_____________________________________________________________________________________________
lambda_52 (Lambda)                               (None, 28, 28, 128)              0          
_____________________________________________________________________________________________
conv3_block1_0_bn (BatchNormalization)           (None, 28, 28, 128)              512        
_____________________________________________________________________________________________
lambda_53 (Lambda)                               (None, 28, 28, 128)              0          
_____________________________________________________________________________________________
conv3_block1_0_relu (Activation)                 (None, 28, 28, 128)              0          
_____________________________________________________________________________________________
lambda_54 (Lambda)                               (None, 28, 28, 128)              0          
_____________________________________________________________________________________________
conv3_block1_1_conv (Conv2D)                     (None, 28, 28, 128)              16384      
_____________________________________________________________________________________________
lambda_55 (Lambda)                               (None, 28, 28, 128)              0          
_____________________________________________________________________________________________
conv3_block1_1_bn (BatchNormalization)           (None, 28, 28, 128)              512        
_____________________________________________________________________________________________
lambda_56 (Lambda)                               (None, 28, 28, 128)              0          
_____________________________________________________________________________________________
conv3_block1_1_relu (Activation)                 (None, 28, 28, 128)              0          
_____________________________________________________________________________________________
lambda_57 (Lambda)                               (None, 28, 28, 128)              0          
_____________________________________________________________________________________________
conv3_block1_2_conv (Conv2D)                     (None, 28, 28, 32)               36864      
_____________________________________________________________________________________________
lambda_58 (Lambda)                               (None, 28, 28, 32)               0          
_____________________________________________________________________________________________
conv3_block1_concat (Concatenate)                (None, 28, 28, 160)              0                                                                                                       
_____________________________________________________________________________________________
lambda_59 (Lambda)                               (None, 28, 28, 160)              0          
_____________________________________________________________________________________________
conv3_block2_0_bn (BatchNormalization)           (None, 28, 28, 160)              640        
_____________________________________________________________________________________________
lambda_60 (Lambda)                               (None, 28, 28, 160)              0          
_____________________________________________________________________________________________
conv3_block2_0_relu (Activation)                 (None, 28, 28, 160)              0          
_____________________________________________________________________________________________
lambda_61 (Lambda)                               (None, 28, 28, 160)              0          
_____________________________________________________________________________________________
conv3_block2_1_conv (Conv2D)                     (None, 28, 28, 128)              20480      
_____________________________________________________________________________________________
lambda_62 (Lambda)                               (None, 28, 28, 128)              0          
_____________________________________________________________________________________________
conv3_block2_1_bn (BatchNormalization)           (None, 28, 28, 128)              512        
_____________________________________________________________________________________________
lambda_63 (Lambda)                               (None, 28, 28, 128)              0          
_____________________________________________________________________________________________
conv3_block2_1_relu (Activation)                 (None, 28, 28, 128)              0          
_____________________________________________________________________________________________
lambda_64 (Lambda)                               (None, 28, 28, 128)              0          
_____________________________________________________________________________________________
conv3_block2_2_conv (Conv2D)                     (None, 28, 28, 32)               36864      
_____________________________________________________________________________________________
lambda_65 (Lambda)                               (None, 28, 28, 32)               0          
_____________________________________________________________________________________________
conv3_block2_concat (Concatenate)                (None, 28, 28, 192)              0                                                                                                       
_____________________________________________________________________________________________
lambda_66 (Lambda)                               (None, 28, 28, 192)              0          
_____________________________________________________________________________________________
conv3_block3_0_bn (BatchNormalization)           (None, 28, 28, 192)              768        
_____________________________________________________________________________________________
lambda_67 (Lambda)                               (None, 28, 28, 192)              0          
_____________________________________________________________________________________________
conv3_block3_0_relu (Activation)                 (None, 28, 28, 192)              0          
_____________________________________________________________________________________________
lambda_68 (Lambda)                               (None, 28, 28, 192)              0          
_____________________________________________________________________________________________
conv3_block3_1_conv (Conv2D)                     (None, 28, 28, 128)              24576      
_____________________________________________________________________________________________
lambda_69 (Lambda)                               (None, 28, 28, 128)              0          
_____________________________________________________________________________________________
conv3_block3_1_bn (BatchNormalization)           (None, 28, 28, 128)              512        
_____________________________________________________________________________________________
lambda_70 (Lambda)                               (None, 28, 28, 128)              0          
_____________________________________________________________________________________________
conv3_block3_1_relu (Activation)                 (None, 28, 28, 128)              0          
_____________________________________________________________________________________________
lambda_71 (Lambda)                               (None, 28, 28, 128)              0          
_____________________________________________________________________________________________
conv3_block3_2_conv (Conv2D)                     (None, 28, 28, 32)               36864      
_____________________________________________________________________________________________
lambda_72 (Lambda)                               (None, 28, 28, 32)               0          
_____________________________________________________________________________________________
conv3_block3_concat (Concatenate)                (None, 28, 28, 224)              0                                                                                                       
_____________________________________________________________________________________________
lambda_73 (Lambda)                               (None, 28, 28, 224)              0          
_____________________________________________________________________________________________
conv3_block4_0_bn (BatchNormalization)           (None, 28, 28, 224)              896        
_____________________________________________________________________________________________
lambda_74 (Lambda)                               (None, 28, 28, 224)              0          
_____________________________________________________________________________________________
conv3_block4_0_relu (Activation)                 (None, 28, 28, 224)              0          
_____________________________________________________________________________________________
lambda_75 (Lambda)                               (None, 28, 28, 224)              0          
_____________________________________________________________________________________________
conv3_block4_1_conv (Conv2D)                     (None, 28, 28, 128)              28672      
_____________________________________________________________________________________________
lambda_76 (Lambda)                               (None, 28, 28, 128)              0          
_____________________________________________________________________________________________
conv3_block4_1_bn (BatchNormalization)           (None, 28, 28, 128)              512        
_____________________________________________________________________________________________
lambda_77 (Lambda)                               (None, 28, 28, 128)              0          
_____________________________________________________________________________________________
conv3_block4_1_relu (Activation)                 (None, 28, 28, 128)              0          
_____________________________________________________________________________________________
lambda_78 (Lambda)                               (None, 28, 28, 128)              0          
_____________________________________________________________________________________________
conv3_block4_2_conv (Conv2D)                     (None, 28, 28, 32)               36864      
_____________________________________________________________________________________________
lambda_79 (Lambda)                               (None, 28, 28, 32)               0          
_____________________________________________________________________________________________
conv3_block4_concat (Concatenate)                (None, 28, 28, 256)              0                                                                                                       
_____________________________________________________________________________________________
lambda_80 (Lambda)                               (None, 28, 28, 256)              0          
_____________________________________________________________________________________________
conv3_block5_0_bn (BatchNormalization)           (None, 28, 28, 256)              1024       
_____________________________________________________________________________________________
lambda_81 (Lambda)                               (None, 28, 28, 256)              0          
_____________________________________________________________________________________________
conv3_block5_0_relu (Activation)                 (None, 28, 28, 256)              0          
_____________________________________________________________________________________________
lambda_82 (Lambda)                               (None, 28, 28, 256)              0          
_____________________________________________________________________________________________
conv3_block5_1_conv (Conv2D)                     (None, 28, 28, 128)              32768      
_____________________________________________________________________________________________
lambda_83 (Lambda)                               (None, 28, 28, 128)              0          
_____________________________________________________________________________________________
conv3_block5_1_bn (BatchNormalization)           (None, 28, 28, 128)              512        
_____________________________________________________________________________________________
lambda_84 (Lambda)                               (None, 28, 28, 128)              0          
_____________________________________________________________________________________________
conv3_block5_1_relu (Activation)                 (None, 28, 28, 128)              0          
_____________________________________________________________________________________________
lambda_85 (Lambda)                               (None, 28, 28, 128)              0          
_____________________________________________________________________________________________
conv3_block5_2_conv (Conv2D)                     (None, 28, 28, 32)               36864      
_____________________________________________________________________________________________
lambda_86 (Lambda)                               (None, 28, 28, 32)               0          
_____________________________________________________________________________________________
conv3_block5_concat (Concatenate)                (None, 28, 28, 288)              0                                                                                                       
_____________________________________________________________________________________________
lambda_87 (Lambda)                               (None, 28, 28, 288)              0          
_____________________________________________________________________________________________
conv3_block6_0_bn (BatchNormalization)           (None, 28, 28, 288)              1152       
_____________________________________________________________________________________________
lambda_88 (Lambda)                               (None, 28, 28, 288)              0          
_____________________________________________________________________________________________
conv3_block6_0_relu (Activation)                 (None, 28, 28, 288)              0          
_____________________________________________________________________________________________
lambda_89 (Lambda)                               (None, 28, 28, 288)              0          
_____________________________________________________________________________________________
conv3_block6_1_conv (Conv2D)                     (None, 28, 28, 128)              36864      
_____________________________________________________________________________________________
lambda_90 (Lambda)                               (None, 28, 28, 128)              0          
_____________________________________________________________________________________________
conv3_block6_1_bn (BatchNormalization)           (None, 28, 28, 128)              512        
_____________________________________________________________________________________________
lambda_91 (Lambda)                               (None, 28, 28, 128)              0          
_____________________________________________________________________________________________
conv3_block6_1_relu (Activation)                 (None, 28, 28, 128)              0          
_____________________________________________________________________________________________
lambda_92 (Lambda)                               (None, 28, 28, 128)              0          
_____________________________________________________________________________________________
conv3_block6_2_conv (Conv2D)                     (None, 28, 28, 32)               36864      
_____________________________________________________________________________________________
lambda_93 (Lambda)                               (None, 28, 28, 32)               0          
_____________________________________________________________________________________________
conv3_block6_concat (Concatenate)                (None, 28, 28, 320)              0                                                                                                       
_____________________________________________________________________________________________
lambda_94 (Lambda)                               (None, 28, 28, 320)              0          
_____________________________________________________________________________________________
conv3_block7_0_bn (BatchNormalization)           (None, 28, 28, 320)              1280       
_____________________________________________________________________________________________
lambda_95 (Lambda)                               (None, 28, 28, 320)              0          
_____________________________________________________________________________________________
conv3_block7_0_relu (Activation)                 (None, 28, 28, 320)              0          
_____________________________________________________________________________________________
lambda_96 (Lambda)                               (None, 28, 28, 320)              0          
_____________________________________________________________________________________________
conv3_block7_1_conv (Conv2D)                     (None, 28, 28, 128)              40960      
_____________________________________________________________________________________________
lambda_97 (Lambda)                               (None, 28, 28, 128)              0          
_____________________________________________________________________________________________
conv3_block7_1_bn (BatchNormalization)           (None, 28, 28, 128)              512        
_____________________________________________________________________________________________
lambda_98 (Lambda)                               (None, 28, 28, 128)              0          
_____________________________________________________________________________________________
conv3_block7_1_relu (Activation)                 (None, 28, 28, 128)              0          
_____________________________________________________________________________________________
lambda_99 (Lambda)                               (None, 28, 28, 128)              0          
_____________________________________________________________________________________________
conv3_block7_2_conv (Conv2D)                     (None, 28, 28, 32)               36864      
_____________________________________________________________________________________________
lambda_100 (Lambda)                              (None, 28, 28, 32)               0          
_____________________________________________________________________________________________
conv3_block7_concat (Concatenate)                (None, 28, 28, 352)              0                                                                                                       
_____________________________________________________________________________________________
lambda_101 (Lambda)                              (None, 28, 28, 352)              0          
_____________________________________________________________________________________________
conv3_block8_0_bn (BatchNormalization)           (None, 28, 28, 352)              1408       
_____________________________________________________________________________________________
lambda_102 (Lambda)                              (None, 28, 28, 352)              0          
_____________________________________________________________________________________________
conv3_block8_0_relu (Activation)                 (None, 28, 28, 352)              0          
_____________________________________________________________________________________________
lambda_103 (Lambda)                              (None, 28, 28, 352)              0          
_____________________________________________________________________________________________
conv3_block8_1_conv (Conv2D)                     (None, 28, 28, 128)              45056      
_____________________________________________________________________________________________
lambda_104 (Lambda)                              (None, 28, 28, 128)              0          
_____________________________________________________________________________________________
conv3_block8_1_bn (BatchNormalization)           (None, 28, 28, 128)              512        
_____________________________________________________________________________________________
lambda_105 (Lambda)                              (None, 28, 28, 128)              0          
_____________________________________________________________________________________________
conv3_block8_1_relu (Activation)                 (None, 28, 28, 128)              0          
_____________________________________________________________________________________________
lambda_106 (Lambda)                              (None, 28, 28, 128)              0          
_____________________________________________________________________________________________
conv3_block8_2_conv (Conv2D)                     (None, 28, 28, 32)               36864      
_____________________________________________________________________________________________
lambda_107 (Lambda)                              (None, 28, 28, 32)               0          
_____________________________________________________________________________________________
conv3_block8_concat (Concatenate)                (None, 28, 28, 384)              0                                                                                                       
_____________________________________________________________________________________________
lambda_108 (Lambda)                              (None, 28, 28, 384)              0          
_____________________________________________________________________________________________
conv3_block9_0_bn (BatchNormalization)           (None, 28, 28, 384)              1536       
_____________________________________________________________________________________________
lambda_109 (Lambda)                              (None, 28, 28, 384)              0          
_____________________________________________________________________________________________
conv3_block9_0_relu (Activation)                 (None, 28, 28, 384)              0          
_____________________________________________________________________________________________
lambda_110 (Lambda)                              (None, 28, 28, 384)              0          
_____________________________________________________________________________________________
conv3_block9_1_conv (Conv2D)                     (None, 28, 28, 128)              49152      
_____________________________________________________________________________________________
lambda_111 (Lambda)                              (None, 28, 28, 128)              0          
_____________________________________________________________________________________________
conv3_block9_1_bn (BatchNormalization)           (None, 28, 28, 128)              512        
_____________________________________________________________________________________________
lambda_112 (Lambda)                              (None, 28, 28, 128)              0          
_____________________________________________________________________________________________
conv3_block9_1_relu (Activation)                 (None, 28, 28, 128)              0          
_____________________________________________________________________________________________
lambda_113 (Lambda)                              (None, 28, 28, 128)              0          
_____________________________________________________________________________________________
conv3_block9_2_conv (Conv2D)                     (None, 28, 28, 32)               36864      
_____________________________________________________________________________________________
lambda_114 (Lambda)                              (None, 28, 28, 32)               0          
_____________________________________________________________________________________________
conv3_block9_concat (Concatenate)                (None, 28, 28, 416)              0                                                                                                       
_____________________________________________________________________________________________
lambda_115 (Lambda)                              (None, 28, 28, 416)              0          
_____________________________________________________________________________________________
conv3_block10_0_bn (BatchNormalization)          (None, 28, 28, 416)              1664       
_____________________________________________________________________________________________
lambda_116 (Lambda)                              (None, 28, 28, 416)              0          
_____________________________________________________________________________________________
conv3_block10_0_relu (Activation)                (None, 28, 28, 416)              0          
_____________________________________________________________________________________________
lambda_117 (Lambda)                              (None, 28, 28, 416)              0          
_____________________________________________________________________________________________
conv3_block10_1_conv (Conv2D)                    (None, 28, 28, 128)              53248      
_____________________________________________________________________________________________
lambda_118 (Lambda)                              (None, 28, 28, 128)              0          
_____________________________________________________________________________________________
conv3_block10_1_bn (BatchNormalization)          (None, 28, 28, 128)              512        
_____________________________________________________________________________________________
lambda_119 (Lambda)                              (None, 28, 28, 128)              0          
_____________________________________________________________________________________________
conv3_block10_1_relu (Activation)                (None, 28, 28, 128)              0          
_____________________________________________________________________________________________
lambda_120 (Lambda)                              (None, 28, 28, 128)              0          
_____________________________________________________________________________________________
conv3_block10_2_conv (Conv2D)                    (None, 28, 28, 32)               36864      
_____________________________________________________________________________________________
lambda_121 (Lambda)                              (None, 28, 28, 32)               0          
_____________________________________________________________________________________________
conv3_block10_concat (Concatenate)               (None, 28, 28, 448)              0                                                                                                       
_____________________________________________________________________________________________
lambda_122 (Lambda)                              (None, 28, 28, 448)              0          
_____________________________________________________________________________________________
conv3_block11_0_bn (BatchNormalization)          (None, 28, 28, 448)              1792       
_____________________________________________________________________________________________
lambda_123 (Lambda)                              (None, 28, 28, 448)              0          
_____________________________________________________________________________________________
conv3_block11_0_relu (Activation)                (None, 28, 28, 448)              0          
_____________________________________________________________________________________________
lambda_124 (Lambda)                              (None, 28, 28, 448)              0          
_____________________________________________________________________________________________
conv3_block11_1_conv (Conv2D)                    (None, 28, 28, 128)              57344      
_____________________________________________________________________________________________
lambda_125 (Lambda)                              (None, 28, 28, 128)              0          
_____________________________________________________________________________________________
conv3_block11_1_bn (BatchNormalization)          (None, 28, 28, 128)              512        
_____________________________________________________________________________________________
lambda_126 (Lambda)                              (None, 28, 28, 128)              0          
_____________________________________________________________________________________________
conv3_block11_1_relu (Activation)                (None, 28, 28, 128)              0          
_____________________________________________________________________________________________
lambda_127 (Lambda)                              (None, 28, 28, 128)              0          
_____________________________________________________________________________________________
conv3_block11_2_conv (Conv2D)                    (None, 28, 28, 32)               36864      
_____________________________________________________________________________________________
lambda_128 (Lambda)                              (None, 28, 28, 32)               0          
_____________________________________________________________________________________________
conv3_block11_concat (Concatenate)               (None, 28, 28, 480)              0                                                                                                       
_____________________________________________________________________________________________
lambda_129 (Lambda)                              (None, 28, 28, 480)              0          
_____________________________________________________________________________________________
conv3_block12_0_bn (BatchNormalization)          (None, 28, 28, 480)              1920       
_____________________________________________________________________________________________
lambda_130 (Lambda)                              (None, 28, 28, 480)              0          
_____________________________________________________________________________________________
conv3_block12_0_relu (Activation)                (None, 28, 28, 480)              0          
_____________________________________________________________________________________________
lambda_131 (Lambda)                              (None, 28, 28, 480)              0          
_____________________________________________________________________________________________
conv3_block12_1_conv (Conv2D)                    (None, 28, 28, 128)              61440      
_____________________________________________________________________________________________
lambda_132 (Lambda)                              (None, 28, 28, 128)              0          
_____________________________________________________________________________________________
conv3_block12_1_bn (BatchNormalization)          (None, 28, 28, 128)              512        
_____________________________________________________________________________________________
lambda_133 (Lambda)                              (None, 28, 28, 128)              0          
_____________________________________________________________________________________________
conv3_block12_1_relu (Activation)                (None, 28, 28, 128)              0          
_____________________________________________________________________________________________
lambda_134 (Lambda)                              (None, 28, 28, 128)              0          
_____________________________________________________________________________________________
conv3_block12_2_conv (Conv2D)                    (None, 28, 28, 32)               36864      
_____________________________________________________________________________________________
lambda_135 (Lambda)                              (None, 28, 28, 32)               0          
_____________________________________________________________________________________________
conv3_block12_concat (Concatenate)               (None, 28, 28, 512)              0                                                                                                       
_____________________________________________________________________________________________
lambda_136 (Lambda)                              (None, 28, 28, 512)              0          
_____________________________________________________________________________________________
pool3_bn (BatchNormalization)                    (None, 28, 28, 512)              2048       
_____________________________________________________________________________________________
lambda_137 (Lambda)                              (None, 28, 28, 512)              0          
_____________________________________________________________________________________________
pool3_relu (Activation)                          (None, 28, 28, 512)              0          
_____________________________________________________________________________________________
lambda_138 (Lambda)                              (None, 28, 28, 512)              0          
_____________________________________________________________________________________________
pool3_conv (Conv2D)                              (None, 28, 28, 256)              131072     
_____________________________________________________________________________________________
lambda_139 (Lambda)                              (None, 28, 28, 256)              0          
_____________________________________________________________________________________________
pool3_pool (AveragePooling2D)                    (None, 14, 14, 256)              0          
_____________________________________________________________________________________________
lambda_140 (Lambda)                              (None, 14, 14, 256)              0          
_____________________________________________________________________________________________
conv4_block1_0_bn (BatchNormalization)           (None, 14, 14, 256)              1024       
_____________________________________________________________________________________________
lambda_141 (Lambda)                              (None, 14, 14, 256)              0          
_____________________________________________________________________________________________
conv4_block1_0_relu (Activation)                 (None, 14, 14, 256)              0          
_____________________________________________________________________________________________
lambda_142 (Lambda)                              (None, 14, 14, 256)              0          
_____________________________________________________________________________________________
conv4_block1_1_conv (Conv2D)                     (None, 14, 14, 128)              32768      
_____________________________________________________________________________________________
lambda_143 (Lambda)                              (None, 14, 14, 128)              0          
_____________________________________________________________________________________________
conv4_block1_1_bn (BatchNormalization)           (None, 14, 14, 128)              512        
_____________________________________________________________________________________________
lambda_144 (Lambda)                              (None, 14, 14, 128)              0          
_____________________________________________________________________________________________
conv4_block1_1_relu (Activation)                 (None, 14, 14, 128)              0          
_____________________________________________________________________________________________
lambda_145 (Lambda)                              (None, 14, 14, 128)              0          
_____________________________________________________________________________________________
conv4_block1_2_conv (Conv2D)                     (None, 14, 14, 32)               36864      
_____________________________________________________________________________________________
lambda_146 (Lambda)                              (None, 14, 14, 32)               0          
_____________________________________________________________________________________________
conv4_block1_concat (Concatenate)                (None, 14, 14, 288)              0                                                                                                       
_____________________________________________________________________________________________
lambda_147 (Lambda)                              (None, 14, 14, 288)              0          
_____________________________________________________________________________________________
conv4_block2_0_bn (BatchNormalization)           (None, 14, 14, 288)              1152       
_____________________________________________________________________________________________
lambda_148 (Lambda)                              (None, 14, 14, 288)              0          
_____________________________________________________________________________________________
conv4_block2_0_relu (Activation)                 (None, 14, 14, 288)              0          
_____________________________________________________________________________________________
lambda_149 (Lambda)                              (None, 14, 14, 288)              0          
_____________________________________________________________________________________________
conv4_block2_1_conv (Conv2D)                     (None, 14, 14, 128)              36864      
_____________________________________________________________________________________________
lambda_150 (Lambda)                              (None, 14, 14, 128)              0          
_____________________________________________________________________________________________
conv4_block2_1_bn (BatchNormalization)           (None, 14, 14, 128)              512        
_____________________________________________________________________________________________
lambda_151 (Lambda)                              (None, 14, 14, 128)              0          
_____________________________________________________________________________________________
conv4_block2_1_relu (Activation)                 (None, 14, 14, 128)              0          
_____________________________________________________________________________________________
lambda_152 (Lambda)                              (None, 14, 14, 128)              0          
_____________________________________________________________________________________________
conv4_block2_2_conv (Conv2D)                     (None, 14, 14, 32)               36864      
_____________________________________________________________________________________________
lambda_153 (Lambda)                              (None, 14, 14, 32)               0          
_____________________________________________________________________________________________
conv4_block2_concat (Concatenate)                (None, 14, 14, 320)              0                                                                                                       
_____________________________________________________________________________________________
lambda_154 (Lambda)                              (None, 14, 14, 320)              0          
_____________________________________________________________________________________________
conv4_block3_0_bn (BatchNormalization)           (None, 14, 14, 320)              1280       
_____________________________________________________________________________________________
lambda_155 (Lambda)                              (None, 14, 14, 320)              0          
_____________________________________________________________________________________________
conv4_block3_0_relu (Activation)                 (None, 14, 14, 320)              0          
_____________________________________________________________________________________________
lambda_156 (Lambda)                              (None, 14, 14, 320)              0          
_____________________________________________________________________________________________
conv4_block3_1_conv (Conv2D)                     (None, 14, 14, 128)              40960      
_____________________________________________________________________________________________
lambda_157 (Lambda)                              (None, 14, 14, 128)              0          
_____________________________________________________________________________________________
conv4_block3_1_bn (BatchNormalization)           (None, 14, 14, 128)              512        
_____________________________________________________________________________________________
lambda_158 (Lambda)                              (None, 14, 14, 128)              0          
_____________________________________________________________________________________________
conv4_block3_1_relu (Activation)                 (None, 14, 14, 128)              0          
_____________________________________________________________________________________________
lambda_159 (Lambda)                              (None, 14, 14, 128)              0          
_____________________________________________________________________________________________
conv4_block3_2_conv (Conv2D)                     (None, 14, 14, 32)               36864      
_____________________________________________________________________________________________
lambda_160 (Lambda)                              (None, 14, 14, 32)               0          
_____________________________________________________________________________________________
conv4_block3_concat (Concatenate)                (None, 14, 14, 352)              0                                                                                                       
_____________________________________________________________________________________________
lambda_161 (Lambda)                              (None, 14, 14, 352)              0          
_____________________________________________________________________________________________
conv4_block4_0_bn (BatchNormalization)           (None, 14, 14, 352)              1408       
_____________________________________________________________________________________________
lambda_162 (Lambda)                              (None, 14, 14, 352)              0          
_____________________________________________________________________________________________
conv4_block4_0_relu (Activation)                 (None, 14, 14, 352)              0          
_____________________________________________________________________________________________
lambda_163 (Lambda)                              (None, 14, 14, 352)              0          
_____________________________________________________________________________________________
conv4_block4_1_conv (Conv2D)                     (None, 14, 14, 128)              45056      
_____________________________________________________________________________________________
lambda_164 (Lambda)                              (None, 14, 14, 128)              0          
_____________________________________________________________________________________________
conv4_block4_1_bn (BatchNormalization)           (None, 14, 14, 128)              512        
_____________________________________________________________________________________________
lambda_165 (Lambda)                              (None, 14, 14, 128)              0          
_____________________________________________________________________________________________
conv4_block4_1_relu (Activation)                 (None, 14, 14, 128)              0          
_____________________________________________________________________________________________
lambda_166 (Lambda)                              (None, 14, 14, 128)              0          
_____________________________________________________________________________________________
conv4_block4_2_conv (Conv2D)                     (None, 14, 14, 32)               36864      
_____________________________________________________________________________________________
lambda_167 (Lambda)                              (None, 14, 14, 32)               0          
_____________________________________________________________________________________________
conv4_block4_concat (Concatenate)                (None, 14, 14, 384)              0                                                                                                       
_____________________________________________________________________________________________
lambda_168 (Lambda)                              (None, 14, 14, 384)              0          
_____________________________________________________________________________________________
conv4_block5_0_bn (BatchNormalization)           (None, 14, 14, 384)              1536       
_____________________________________________________________________________________________
lambda_169 (Lambda)                              (None, 14, 14, 384)              0          
_____________________________________________________________________________________________
conv4_block5_0_relu (Activation)                 (None, 14, 14, 384)              0          
_____________________________________________________________________________________________
lambda_170 (Lambda)                              (None, 14, 14, 384)              0          
_____________________________________________________________________________________________
conv4_block5_1_conv (Conv2D)                     (None, 14, 14, 128)              49152      
_____________________________________________________________________________________________
lambda_171 (Lambda)                              (None, 14, 14, 128)              0          
_____________________________________________________________________________________________
conv4_block5_1_bn (BatchNormalization)           (None, 14, 14, 128)              512        
_____________________________________________________________________________________________
lambda_172 (Lambda)                              (None, 14, 14, 128)              0          
_____________________________________________________________________________________________
conv4_block5_1_relu (Activation)                 (None, 14, 14, 128)              0          
_____________________________________________________________________________________________
lambda_173 (Lambda)                              (None, 14, 14, 128)              0          
_____________________________________________________________________________________________
conv4_block5_2_conv (Conv2D)                     (None, 14, 14, 32)               36864      
_____________________________________________________________________________________________
lambda_174 (Lambda)                              (None, 14, 14, 32)               0          
_____________________________________________________________________________________________
conv4_block5_concat (Concatenate)                (None, 14, 14, 416)              0                                                                                                       
_____________________________________________________________________________________________
lambda_175 (Lambda)                              (None, 14, 14, 416)              0          
_____________________________________________________________________________________________
conv4_block6_0_bn (BatchNormalization)           (None, 14, 14, 416)              1664       
_____________________________________________________________________________________________
lambda_176 (Lambda)                              (None, 14, 14, 416)              0          
_____________________________________________________________________________________________
conv4_block6_0_relu (Activation)                 (None, 14, 14, 416)              0          
_____________________________________________________________________________________________
lambda_177 (Lambda)                              (None, 14, 14, 416)              0          
_____________________________________________________________________________________________
conv4_block6_1_conv (Conv2D)                     (None, 14, 14, 128)              53248      
_____________________________________________________________________________________________
lambda_178 (Lambda)                              (None, 14, 14, 128)              0          
_____________________________________________________________________________________________
conv4_block6_1_bn (BatchNormalization)           (None, 14, 14, 128)              512        
_____________________________________________________________________________________________
lambda_179 (Lambda)                              (None, 14, 14, 128)              0          
_____________________________________________________________________________________________
conv4_block6_1_relu (Activation)                 (None, 14, 14, 128)              0          
_____________________________________________________________________________________________
lambda_180 (Lambda)                              (None, 14, 14, 128)              0          
_____________________________________________________________________________________________
conv4_block6_2_conv (Conv2D)                     (None, 14, 14, 32)               36864      
_____________________________________________________________________________________________
lambda_181 (Lambda)                              (None, 14, 14, 32)               0          
_____________________________________________________________________________________________
conv4_block6_concat (Concatenate)                (None, 14, 14, 448)              0                                                                                                       
_____________________________________________________________________________________________
lambda_182 (Lambda)                              (None, 14, 14, 448)              0          
_____________________________________________________________________________________________
conv4_block7_0_bn (BatchNormalization)           (None, 14, 14, 448)              1792       
_____________________________________________________________________________________________
lambda_183 (Lambda)                              (None, 14, 14, 448)              0          
_____________________________________________________________________________________________
conv4_block7_0_relu (Activation)                 (None, 14, 14, 448)              0          
_____________________________________________________________________________________________
lambda_184 (Lambda)                              (None, 14, 14, 448)              0          
_____________________________________________________________________________________________
conv4_block7_1_conv (Conv2D)                     (None, 14, 14, 128)              57344      
_____________________________________________________________________________________________
lambda_185 (Lambda)                              (None, 14, 14, 128)              0          
_____________________________________________________________________________________________
conv4_block7_1_bn (BatchNormalization)           (None, 14, 14, 128)              512        
_____________________________________________________________________________________________
lambda_186 (Lambda)                              (None, 14, 14, 128)              0          
_____________________________________________________________________________________________
conv4_block7_1_relu (Activation)                 (None, 14, 14, 128)              0          
_____________________________________________________________________________________________
lambda_187 (Lambda)                              (None, 14, 14, 128)              0          
_____________________________________________________________________________________________
conv4_block7_2_conv (Conv2D)                     (None, 14, 14, 32)               36864      
_____________________________________________________________________________________________
lambda_188 (Lambda)                              (None, 14, 14, 32)               0          
_____________________________________________________________________________________________
conv4_block7_concat (Concatenate)                (None, 14, 14, 480)              0                                                                                                       
_____________________________________________________________________________________________
lambda_189 (Lambda)                              (None, 14, 14, 480)              0          
_____________________________________________________________________________________________
conv4_block8_0_bn (BatchNormalization)           (None, 14, 14, 480)              1920       
_____________________________________________________________________________________________
lambda_190 (Lambda)                              (None, 14, 14, 480)              0          
_____________________________________________________________________________________________
conv4_block8_0_relu (Activation)                 (None, 14, 14, 480)              0          
_____________________________________________________________________________________________
lambda_191 (Lambda)                              (None, 14, 14, 480)              0          
_____________________________________________________________________________________________
conv4_block8_1_conv (Conv2D)                     (None, 14, 14, 128)              61440      
_____________________________________________________________________________________________
lambda_192 (Lambda)                              (None, 14, 14, 128)              0          
_____________________________________________________________________________________________
conv4_block8_1_bn (BatchNormalization)           (None, 14, 14, 128)              512        
_____________________________________________________________________________________________
lambda_193 (Lambda)                              (None, 14, 14, 128)              0          
_____________________________________________________________________________________________
conv4_block8_1_relu (Activation)                 (None, 14, 14, 128)              0          
_____________________________________________________________________________________________
lambda_194 (Lambda)                              (None, 14, 14, 128)              0          
_____________________________________________________________________________________________
conv4_block8_2_conv (Conv2D)                     (None, 14, 14, 32)               36864      
_____________________________________________________________________________________________
lambda_195 (Lambda)                              (None, 14, 14, 32)               0          
_____________________________________________________________________________________________
conv4_block8_concat (Concatenate)                (None, 14, 14, 512)              0                                                                                                       
_____________________________________________________________________________________________
lambda_196 (Lambda)                              (None, 14, 14, 512)              0          
_____________________________________________________________________________________________
conv4_block9_0_bn (BatchNormalization)           (None, 14, 14, 512)              2048       
_____________________________________________________________________________________________
lambda_197 (Lambda)                              (None, 14, 14, 512)              0          
_____________________________________________________________________________________________
conv4_block9_0_relu (Activation)                 (None, 14, 14, 512)              0          
_____________________________________________________________________________________________
lambda_198 (Lambda)                              (None, 14, 14, 512)              0          
_____________________________________________________________________________________________
conv4_block9_1_conv (Conv2D)                     (None, 14, 14, 128)              65536      
_____________________________________________________________________________________________
lambda_199 (Lambda)                              (None, 14, 14, 128)              0          
_____________________________________________________________________________________________
conv4_block9_1_bn (BatchNormalization)           (None, 14, 14, 128)              512        
_____________________________________________________________________________________________
lambda_200 (Lambda)                              (None, 14, 14, 128)              0          
_____________________________________________________________________________________________
conv4_block9_1_relu (Activation)                 (None, 14, 14, 128)              0          
_____________________________________________________________________________________________
lambda_201 (Lambda)                              (None, 14, 14, 128)              0          
_____________________________________________________________________________________________
conv4_block9_2_conv (Conv2D)                     (None, 14, 14, 32)               36864      
_____________________________________________________________________________________________
lambda_202 (Lambda)                              (None, 14, 14, 32)               0          
_____________________________________________________________________________________________
conv4_block9_concat (Concatenate)                (None, 14, 14, 544)              0                                                                                                       
_____________________________________________________________________________________________
lambda_203 (Lambda)                              (None, 14, 14, 544)              0          
_____________________________________________________________________________________________
conv4_block10_0_bn (BatchNormalization)          (None, 14, 14, 544)              2176       
_____________________________________________________________________________________________
lambda_204 (Lambda)                              (None, 14, 14, 544)              0          
_____________________________________________________________________________________________
conv4_block10_0_relu (Activation)                (None, 14, 14, 544)              0          
_____________________________________________________________________________________________
lambda_205 (Lambda)                              (None, 14, 14, 544)              0          
_____________________________________________________________________________________________
conv4_block10_1_conv (Conv2D)                    (None, 14, 14, 128)              69632      
_____________________________________________________________________________________________
lambda_206 (Lambda)                              (None, 14, 14, 128)              0          
_____________________________________________________________________________________________
conv4_block10_1_bn (BatchNormalization)          (None, 14, 14, 128)              512        
_____________________________________________________________________________________________
lambda_207 (Lambda)                              (None, 14, 14, 128)              0          
_____________________________________________________________________________________________
conv4_block10_1_relu (Activation)                (None, 14, 14, 128)              0          
_____________________________________________________________________________________________
lambda_208 (Lambda)                              (None, 14, 14, 128)              0          
_____________________________________________________________________________________________
conv4_block10_2_conv (Conv2D)                    (None, 14, 14, 32)               36864      
_____________________________________________________________________________________________
lambda_209 (Lambda)                              (None, 14, 14, 32)               0          
_____________________________________________________________________________________________
conv4_block10_concat (Concatenate)               (None, 14, 14, 576)              0                                                                                                       
_____________________________________________________________________________________________
lambda_210 (Lambda)                              (None, 14, 14, 576)              0          
_____________________________________________________________________________________________
conv4_block11_0_bn (BatchNormalization)          (None, 14, 14, 576)              2304       
_____________________________________________________________________________________________
lambda_211 (Lambda)                              (None, 14, 14, 576)              0          
_____________________________________________________________________________________________
conv4_block11_0_relu (Activation)                (None, 14, 14, 576)              0          
_____________________________________________________________________________________________
lambda_212 (Lambda)                              (None, 14, 14, 576)              0          
_____________________________________________________________________________________________
conv4_block11_1_conv (Conv2D)                    (None, 14, 14, 128)              73728      
_____________________________________________________________________________________________
lambda_213 (Lambda)                              (None, 14, 14, 128)              0          
_____________________________________________________________________________________________
conv4_block11_1_bn (BatchNormalization)          (None, 14, 14, 128)              512        
_____________________________________________________________________________________________
lambda_214 (Lambda)                              (None, 14, 14, 128)              0          
_____________________________________________________________________________________________
conv4_block11_1_relu (Activation)                (None, 14, 14, 128)              0          
_____________________________________________________________________________________________
lambda_215 (Lambda)                              (None, 14, 14, 128)              0          
_____________________________________________________________________________________________
conv4_block11_2_conv (Conv2D)                    (None, 14, 14, 32)               36864      
_____________________________________________________________________________________________
lambda_216 (Lambda)                              (None, 14, 14, 32)               0          
_____________________________________________________________________________________________
conv4_block11_concat (Concatenate)               (None, 14, 14, 608)              0                                                                                                       
_____________________________________________________________________________________________
lambda_217 (Lambda)                              (None, 14, 14, 608)              0          
_____________________________________________________________________________________________
conv4_block12_0_bn (BatchNormalization)          (None, 14, 14, 608)              2432       
_____________________________________________________________________________________________
lambda_218 (Lambda)                              (None, 14, 14, 608)              0          
_____________________________________________________________________________________________
conv4_block12_0_relu (Activation)                (None, 14, 14, 608)              0          
_____________________________________________________________________________________________
lambda_219 (Lambda)                              (None, 14, 14, 608)              0          
_____________________________________________________________________________________________
conv4_block12_1_conv (Conv2D)                    (None, 14, 14, 128)              77824      
_____________________________________________________________________________________________
lambda_220 (Lambda)                              (None, 14, 14, 128)              0          
_____________________________________________________________________________________________
conv4_block12_1_bn (BatchNormalization)          (None, 14, 14, 128)              512        
_____________________________________________________________________________________________
lambda_221 (Lambda)                              (None, 14, 14, 128)              0          
_____________________________________________________________________________________________
conv4_block12_1_relu (Activation)                (None, 14, 14, 128)              0          
_____________________________________________________________________________________________
lambda_222 (Lambda)                              (None, 14, 14, 128)              0          
_____________________________________________________________________________________________
conv4_block12_2_conv (Conv2D)                    (None, 14, 14, 32)               36864      
_____________________________________________________________________________________________
lambda_223 (Lambda)                              (None, 14, 14, 32)               0          
_____________________________________________________________________________________________
conv4_block12_concat (Concatenate)               (None, 14, 14, 640)              0                                                                                                       
_____________________________________________________________________________________________
lambda_224 (Lambda)                              (None, 14, 14, 640)              0          
_____________________________________________________________________________________________
conv4_block13_0_bn (BatchNormalization)          (None, 14, 14, 640)              2560       
_____________________________________________________________________________________________
lambda_225 (Lambda)                              (None, 14, 14, 640)              0          
_____________________________________________________________________________________________
conv4_block13_0_relu (Activation)                (None, 14, 14, 640)              0          
_____________________________________________________________________________________________
lambda_226 (Lambda)                              (None, 14, 14, 640)              0          
_____________________________________________________________________________________________
conv4_block13_1_conv (Conv2D)                    (None, 14, 14, 128)              81920      
_____________________________________________________________________________________________
lambda_227 (Lambda)                              (None, 14, 14, 128)              0          
_____________________________________________________________________________________________
conv4_block13_1_bn (BatchNormalization)          (None, 14, 14, 128)              512        
_____________________________________________________________________________________________
lambda_228 (Lambda)                              (None, 14, 14, 128)              0          
_____________________________________________________________________________________________
conv4_block13_1_relu (Activation)                (None, 14, 14, 128)              0          
_____________________________________________________________________________________________
lambda_229 (Lambda)                              (None, 14, 14, 128)              0          
_____________________________________________________________________________________________
conv4_block13_2_conv (Conv2D)                    (None, 14, 14, 32)               36864      
_____________________________________________________________________________________________
lambda_230 (Lambda)                              (None, 14, 14, 32)               0          
_____________________________________________________________________________________________
conv4_block13_concat (Concatenate)               (None, 14, 14, 672)              0                                                                                                       
_____________________________________________________________________________________________
lambda_231 (Lambda)                              (None, 14, 14, 672)              0          
_____________________________________________________________________________________________
conv4_block14_0_bn (BatchNormalization)          (None, 14, 14, 672)              2688       
_____________________________________________________________________________________________
lambda_232 (Lambda)                              (None, 14, 14, 672)              0          
_____________________________________________________________________________________________
conv4_block14_0_relu (Activation)                (None, 14, 14, 672)              0          
_____________________________________________________________________________________________
lambda_233 (Lambda)                              (None, 14, 14, 672)              0          
_____________________________________________________________________________________________
conv4_block14_1_conv (Conv2D)                    (None, 14, 14, 128)              86016      
_____________________________________________________________________________________________
lambda_234 (Lambda)                              (None, 14, 14, 128)              0          
_____________________________________________________________________________________________
conv4_block14_1_bn (BatchNormalization)          (None, 14, 14, 128)              512        
_____________________________________________________________________________________________
lambda_235 (Lambda)                              (None, 14, 14, 128)              0          
_____________________________________________________________________________________________
conv4_block14_1_relu (Activation)                (None, 14, 14, 128)              0          
_____________________________________________________________________________________________
lambda_236 (Lambda)                              (None, 14, 14, 128)              0          
_____________________________________________________________________________________________
conv4_block14_2_conv (Conv2D)                    (None, 14, 14, 32)               36864      
_____________________________________________________________________________________________
lambda_237 (Lambda)                              (None, 14, 14, 32)               0          
_____________________________________________________________________________________________
conv4_block14_concat (Concatenate)               (None, 14, 14, 704)              0                                                                                                       
_____________________________________________________________________________________________
lambda_238 (Lambda)                              (None, 14, 14, 704)              0          
_____________________________________________________________________________________________
conv4_block15_0_bn (BatchNormalization)          (None, 14, 14, 704)              2816       
_____________________________________________________________________________________________
lambda_239 (Lambda)                              (None, 14, 14, 704)              0          
_____________________________________________________________________________________________
conv4_block15_0_relu (Activation)                (None, 14, 14, 704)              0          
_____________________________________________________________________________________________
lambda_240 (Lambda)                              (None, 14, 14, 704)              0          
_____________________________________________________________________________________________
conv4_block15_1_conv (Conv2D)                    (None, 14, 14, 128)              90112      
_____________________________________________________________________________________________
lambda_241 (Lambda)                              (None, 14, 14, 128)              0          
_____________________________________________________________________________________________
conv4_block15_1_bn (BatchNormalization)          (None, 14, 14, 128)              512        
_____________________________________________________________________________________________
lambda_242 (Lambda)                              (None, 14, 14, 128)              0          
_____________________________________________________________________________________________
conv4_block15_1_relu (Activation)                (None, 14, 14, 128)              0          
_____________________________________________________________________________________________
lambda_243 (Lambda)                              (None, 14, 14, 128)              0          
_____________________________________________________________________________________________
conv4_block15_2_conv (Conv2D)                    (None, 14, 14, 32)               36864      
_____________________________________________________________________________________________
lambda_244 (Lambda)                              (None, 14, 14, 32)               0          
_____________________________________________________________________________________________
conv4_block15_concat (Concatenate)               (None, 14, 14, 736)              0                                                                                                       
_____________________________________________________________________________________________
lambda_245 (Lambda)                              (None, 14, 14, 736)              0          
_____________________________________________________________________________________________
conv4_block16_0_bn (BatchNormalization)          (None, 14, 14, 736)              2944       
_____________________________________________________________________________________________
lambda_246 (Lambda)                              (None, 14, 14, 736)              0          
_____________________________________________________________________________________________
conv4_block16_0_relu (Activation)                (None, 14, 14, 736)              0          
_____________________________________________________________________________________________
lambda_247 (Lambda)                              (None, 14, 14, 736)              0          
_____________________________________________________________________________________________
conv4_block16_1_conv (Conv2D)                    (None, 14, 14, 128)              94208      
_____________________________________________________________________________________________
lambda_248 (Lambda)                              (None, 14, 14, 128)              0          
_____________________________________________________________________________________________
conv4_block16_1_bn (BatchNormalization)          (None, 14, 14, 128)              512        
_____________________________________________________________________________________________
lambda_249 (Lambda)                              (None, 14, 14, 128)              0          
_____________________________________________________________________________________________
conv4_block16_1_relu (Activation)                (None, 14, 14, 128)              0          
_____________________________________________________________________________________________
lambda_250 (Lambda)                              (None, 14, 14, 128)              0          
_____________________________________________________________________________________________
conv4_block16_2_conv (Conv2D)                    (None, 14, 14, 32)               36864      
_____________________________________________________________________________________________
lambda_251 (Lambda)                              (None, 14, 14, 32)               0          
_____________________________________________________________________________________________
conv4_block16_concat (Concatenate)               (None, 14, 14, 768)              0                                                                                                       
_____________________________________________________________________________________________
lambda_252 (Lambda)                              (None, 14, 14, 768)              0          
_____________________________________________________________________________________________
conv4_block17_0_bn (BatchNormalization)          (None, 14, 14, 768)              3072       
_____________________________________________________________________________________________
lambda_253 (Lambda)                              (None, 14, 14, 768)              0          
_____________________________________________________________________________________________
conv4_block17_0_relu (Activation)                (None, 14, 14, 768)              0          
_____________________________________________________________________________________________
lambda_254 (Lambda)                              (None, 14, 14, 768)              0          
_____________________________________________________________________________________________
conv4_block17_1_conv (Conv2D)                    (None, 14, 14, 128)              98304      
_____________________________________________________________________________________________
lambda_255 (Lambda)                              (None, 14, 14, 128)              0          
_____________________________________________________________________________________________
conv4_block17_1_bn (BatchNormalization)          (None, 14, 14, 128)              512        
_____________________________________________________________________________________________
lambda_256 (Lambda)                              (None, 14, 14, 128)              0          
_____________________________________________________________________________________________
conv4_block17_1_relu (Activation)                (None, 14, 14, 128)              0          
_____________________________________________________________________________________________
lambda_257 (Lambda)                              (None, 14, 14, 128)              0          
_____________________________________________________________________________________________
conv4_block17_2_conv (Conv2D)                    (None, 14, 14, 32)               36864      
_____________________________________________________________________________________________
lambda_258 (Lambda)                              (None, 14, 14, 32)               0          
_____________________________________________________________________________________________
conv4_block17_concat (Concatenate)               (None, 14, 14, 800)              0                                                                                                       
_____________________________________________________________________________________________
lambda_259 (Lambda)                              (None, 14, 14, 800)              0          
_____________________________________________________________________________________________
conv4_block18_0_bn (BatchNormalization)          (None, 14, 14, 800)              3200       
_____________________________________________________________________________________________
lambda_260 (Lambda)                              (None, 14, 14, 800)              0          
_____________________________________________________________________________________________
conv4_block18_0_relu (Activation)                (None, 14, 14, 800)              0          
_____________________________________________________________________________________________
lambda_261 (Lambda)                              (None, 14, 14, 800)              0          
_____________________________________________________________________________________________
conv4_block18_1_conv (Conv2D)                    (None, 14, 14, 128)              102400     
_____________________________________________________________________________________________
lambda_262 (Lambda)                              (None, 14, 14, 128)              0          
_____________________________________________________________________________________________
conv4_block18_1_bn (BatchNormalization)          (None, 14, 14, 128)              512        
_____________________________________________________________________________________________
lambda_263 (Lambda)                              (None, 14, 14, 128)              0          
_____________________________________________________________________________________________
conv4_block18_1_relu (Activation)                (None, 14, 14, 128)              0          
_____________________________________________________________________________________________
lambda_264 (Lambda)                              (None, 14, 14, 128)              0          
_____________________________________________________________________________________________
conv4_block18_2_conv (Conv2D)                    (None, 14, 14, 32)               36864      
_____________________________________________________________________________________________
lambda_265 (Lambda)                              (None, 14, 14, 32)               0          
_____________________________________________________________________________________________
conv4_block18_concat (Concatenate)               (None, 14, 14, 832)              0                                                                                                       
_____________________________________________________________________________________________
lambda_266 (Lambda)                              (None, 14, 14, 832)              0          
_____________________________________________________________________________________________
conv4_block19_0_bn (BatchNormalization)          (None, 14, 14, 832)              3328       
_____________________________________________________________________________________________
lambda_267 (Lambda)                              (None, 14, 14, 832)              0          
_____________________________________________________________________________________________
conv4_block19_0_relu (Activation)                (None, 14, 14, 832)              0          
_____________________________________________________________________________________________
lambda_268 (Lambda)                              (None, 14, 14, 832)              0          
_____________________________________________________________________________________________
conv4_block19_1_conv (Conv2D)                    (None, 14, 14, 128)              106496     
_____________________________________________________________________________________________
lambda_269 (Lambda)                              (None, 14, 14, 128)              0          
_____________________________________________________________________________________________
conv4_block19_1_bn (BatchNormalization)          (None, 14, 14, 128)              512        
_____________________________________________________________________________________________
lambda_270 (Lambda)                              (None, 14, 14, 128)              0          
_____________________________________________________________________________________________
conv4_block19_1_relu (Activation)                (None, 14, 14, 128)              0          
_____________________________________________________________________________________________
lambda_271 (Lambda)                              (None, 14, 14, 128)              0          
_____________________________________________________________________________________________
conv4_block19_2_conv (Conv2D)                    (None, 14, 14, 32)               36864      
_____________________________________________________________________________________________
lambda_272 (Lambda)                              (None, 14, 14, 32)               0          
_____________________________________________________________________________________________
conv4_block19_concat (Concatenate)               (None, 14, 14, 864)              0                                                                                                       
_____________________________________________________________________________________________
lambda_273 (Lambda)                              (None, 14, 14, 864)              0          
_____________________________________________________________________________________________
conv4_block20_0_bn (BatchNormalization)          (None, 14, 14, 864)              3456       
_____________________________________________________________________________________________
lambda_274 (Lambda)                              (None, 14, 14, 864)              0          
_____________________________________________________________________________________________
conv4_block20_0_relu (Activation)                (None, 14, 14, 864)              0          
_____________________________________________________________________________________________
lambda_275 (Lambda)                              (None, 14, 14, 864)              0          
_____________________________________________________________________________________________
conv4_block20_1_conv (Conv2D)                    (None, 14, 14, 128)              110592     
_____________________________________________________________________________________________
lambda_276 (Lambda)                              (None, 14, 14, 128)              0          
_____________________________________________________________________________________________
conv4_block20_1_bn (BatchNormalization)          (None, 14, 14, 128)              512        
_____________________________________________________________________________________________
lambda_277 (Lambda)                              (None, 14, 14, 128)              0          
_____________________________________________________________________________________________
conv4_block20_1_relu (Activation)                (None, 14, 14, 128)              0          
_____________________________________________________________________________________________
lambda_278 (Lambda)                              (None, 14, 14, 128)              0          
_____________________________________________________________________________________________
conv4_block20_2_conv (Conv2D)                    (None, 14, 14, 32)               36864      
_____________________________________________________________________________________________
lambda_279 (Lambda)                              (None, 14, 14, 32)               0          
_____________________________________________________________________________________________
conv4_block20_concat (Concatenate)               (None, 14, 14, 896)              0                                                                                                       
_____________________________________________________________________________________________
lambda_280 (Lambda)                              (None, 14, 14, 896)              0          
_____________________________________________________________________________________________
conv4_block21_0_bn (BatchNormalization)          (None, 14, 14, 896)              3584       
_____________________________________________________________________________________________
lambda_281 (Lambda)                              (None, 14, 14, 896)              0          
_____________________________________________________________________________________________
conv4_block21_0_relu (Activation)                (None, 14, 14, 896)              0          
_____________________________________________________________________________________________
lambda_282 (Lambda)                              (None, 14, 14, 896)              0          
_____________________________________________________________________________________________
conv4_block21_1_conv (Conv2D)                    (None, 14, 14, 128)              114688     
_____________________________________________________________________________________________
lambda_283 (Lambda)                              (None, 14, 14, 128)              0          
_____________________________________________________________________________________________
conv4_block21_1_bn (BatchNormalization)          (None, 14, 14, 128)              512        
_____________________________________________________________________________________________
lambda_284 (Lambda)                              (None, 14, 14, 128)              0          
_____________________________________________________________________________________________
conv4_block21_1_relu (Activation)                (None, 14, 14, 128)              0          
_____________________________________________________________________________________________
lambda_285 (Lambda)                              (None, 14, 14, 128)              0          
_____________________________________________________________________________________________
conv4_block21_2_conv (Conv2D)                    (None, 14, 14, 32)               36864      
_____________________________________________________________________________________________
lambda_286 (Lambda)                              (None, 14, 14, 32)               0          
_____________________________________________________________________________________________
conv4_block21_concat (Concatenate)               (None, 14, 14, 928)              0                                                                                                       
_____________________________________________________________________________________________
lambda_287 (Lambda)                              (None, 14, 14, 928)              0          
_____________________________________________________________________________________________
conv4_block22_0_bn (BatchNormalization)          (None, 14, 14, 928)              3712       
_____________________________________________________________________________________________
lambda_288 (Lambda)                              (None, 14, 14, 928)              0          
_____________________________________________________________________________________________
conv4_block22_0_relu (Activation)                (None, 14, 14, 928)              0          
_____________________________________________________________________________________________
lambda_289 (Lambda)                              (None, 14, 14, 928)              0          
_____________________________________________________________________________________________
conv4_block22_1_conv (Conv2D)                    (None, 14, 14, 128)              118784     
_____________________________________________________________________________________________
lambda_290 (Lambda)                              (None, 14, 14, 128)              0          
_____________________________________________________________________________________________
conv4_block22_1_bn (BatchNormalization)          (None, 14, 14, 128)              512        
_____________________________________________________________________________________________
lambda_291 (Lambda)                              (None, 14, 14, 128)              0          
_____________________________________________________________________________________________
conv4_block22_1_relu (Activation)                (None, 14, 14, 128)              0          
_____________________________________________________________________________________________
lambda_292 (Lambda)                              (None, 14, 14, 128)              0          
_____________________________________________________________________________________________
conv4_block22_2_conv (Conv2D)                    (None, 14, 14, 32)               36864      
_____________________________________________________________________________________________
lambda_293 (Lambda)                              (None, 14, 14, 32)               0          
_____________________________________________________________________________________________
conv4_block22_concat (Concatenate)               (None, 14, 14, 960)              0                                                                                                       
_____________________________________________________________________________________________
lambda_294 (Lambda)                              (None, 14, 14, 960)              0          
_____________________________________________________________________________________________
conv4_block23_0_bn (BatchNormalization)          (None, 14, 14, 960)              3840       
_____________________________________________________________________________________________
lambda_295 (Lambda)                              (None, 14, 14, 960)              0          
_____________________________________________________________________________________________
conv4_block23_0_relu (Activation)                (None, 14, 14, 960)              0          
_____________________________________________________________________________________________
lambda_296 (Lambda)                              (None, 14, 14, 960)              0          
_____________________________________________________________________________________________
conv4_block23_1_conv (Conv2D)                    (None, 14, 14, 128)              122880     
_____________________________________________________________________________________________
lambda_297 (Lambda)                              (None, 14, 14, 128)              0          
_____________________________________________________________________________________________
conv4_block23_1_bn (BatchNormalization)          (None, 14, 14, 128)              512        
_____________________________________________________________________________________________
lambda_298 (Lambda)                              (None, 14, 14, 128)              0          
_____________________________________________________________________________________________
conv4_block23_1_relu (Activation)                (None, 14, 14, 128)              0          
_____________________________________________________________________________________________
lambda_299 (Lambda)                              (None, 14, 14, 128)              0          
_____________________________________________________________________________________________
conv4_block23_2_conv (Conv2D)                    (None, 14, 14, 32)               36864      
_____________________________________________________________________________________________
lambda_300 (Lambda)                              (None, 14, 14, 32)               0          
_____________________________________________________________________________________________
conv4_block23_concat (Concatenate)               (None, 14, 14, 992)              0                                                                                                       
_____________________________________________________________________________________________
lambda_301 (Lambda)                              (None, 14, 14, 992)              0          
_____________________________________________________________________________________________
conv4_block24_0_bn (BatchNormalization)          (None, 14, 14, 992)              3968       
_____________________________________________________________________________________________
lambda_302 (Lambda)                              (None, 14, 14, 992)              0          
_____________________________________________________________________________________________
conv4_block24_0_relu (Activation)                (None, 14, 14, 992)              0          
_____________________________________________________________________________________________
lambda_303 (Lambda)                              (None, 14, 14, 992)              0          
_____________________________________________________________________________________________
conv4_block24_1_conv (Conv2D)                    (None, 14, 14, 128)              126976     
_____________________________________________________________________________________________
lambda_304 (Lambda)                              (None, 14, 14, 128)              0          
_____________________________________________________________________________________________
conv4_block24_1_bn (BatchNormalization)          (None, 14, 14, 128)              512        
_____________________________________________________________________________________________
lambda_305 (Lambda)                              (None, 14, 14, 128)              0          
_____________________________________________________________________________________________
conv4_block24_1_relu (Activation)                (None, 14, 14, 128)              0          
_____________________________________________________________________________________________
lambda_306 (Lambda)                              (None, 14, 14, 128)              0          
_____________________________________________________________________________________________
conv4_block24_2_conv (Conv2D)                    (None, 14, 14, 32)               36864      
_____________________________________________________________________________________________
lambda_307 (Lambda)                              (None, 14, 14, 32)               0          
_____________________________________________________________________________________________
conv4_block24_concat (Concatenate)               (None, 14, 14, 1024)             0                                                                                                       
_____________________________________________________________________________________________
lambda_308 (Lambda)                              (None, 14, 14, 1024)             0          
_____________________________________________________________________________________________
pool4_bn (BatchNormalization)                    (None, 14, 14, 1024)             4096       
_____________________________________________________________________________________________
lambda_309 (Lambda)                              (None, 14, 14, 1024)             0          
_____________________________________________________________________________________________
pool4_relu (Activation)                          (None, 14, 14, 1024)             0          
_____________________________________________________________________________________________
lambda_310 (Lambda)                              (None, 14, 14, 1024)             0          
_____________________________________________________________________________________________
pool4_conv (Conv2D)                              (None, 14, 14, 512)              524288     
_____________________________________________________________________________________________
lambda_311 (Lambda)                              (None, 14, 14, 512)              0          
_____________________________________________________________________________________________
pool4_pool (AveragePooling2D)                    (None, 7, 7, 512)                0          
_____________________________________________________________________________________________
lambda_312 (Lambda)                              (None, 7, 7, 512)                0          
_____________________________________________________________________________________________
conv5_block1_0_bn (BatchNormalization)           (None, 7, 7, 512)                2048       
_____________________________________________________________________________________________
lambda_313 (Lambda)                              (None, 7, 7, 512)                0          
_____________________________________________________________________________________________
conv5_block1_0_relu (Activation)                 (None, 7, 7, 512)                0          
_____________________________________________________________________________________________
lambda_314 (Lambda)                              (None, 7, 7, 512)                0          
_____________________________________________________________________________________________
conv5_block1_1_conv (Conv2D)                     (None, 7, 7, 128)                65536      
_____________________________________________________________________________________________
lambda_315 (Lambda)                              (None, 7, 7, 128)                0          
_____________________________________________________________________________________________
conv5_block1_1_bn (BatchNormalization)           (None, 7, 7, 128)                512        
_____________________________________________________________________________________________
lambda_316 (Lambda)                              (None, 7, 7, 128)                0          
_____________________________________________________________________________________________
conv5_block1_1_relu (Activation)                 (None, 7, 7, 128)                0          
_____________________________________________________________________________________________
lambda_317 (Lambda)                              (None, 7, 7, 128)                0          
_____________________________________________________________________________________________
conv5_block1_2_conv (Conv2D)                     (None, 7, 7, 32)                 36864      
_____________________________________________________________________________________________
lambda_318 (Lambda)                              (None, 7, 7, 32)                 0          
_____________________________________________________________________________________________
conv5_block1_concat (Concatenate)                (None, 7, 7, 544)                0                                                                                                       
_____________________________________________________________________________________________
lambda_319 (Lambda)                              (None, 7, 7, 544)                0          
_____________________________________________________________________________________________
conv5_block2_0_bn (BatchNormalization)           (None, 7, 7, 544)                2176       
_____________________________________________________________________________________________
lambda_320 (Lambda)                              (None, 7, 7, 544)                0          
_____________________________________________________________________________________________
conv5_block2_0_relu (Activation)                 (None, 7, 7, 544)                0          
_____________________________________________________________________________________________
lambda_321 (Lambda)                              (None, 7, 7, 544)                0          
_____________________________________________________________________________________________
conv5_block2_1_conv (Conv2D)                     (None, 7, 7, 128)                69632      
_____________________________________________________________________________________________
lambda_322 (Lambda)                              (None, 7, 7, 128)                0          
_____________________________________________________________________________________________
conv5_block2_1_bn (BatchNormalization)           (None, 7, 7, 128)                512        
_____________________________________________________________________________________________
lambda_323 (Lambda)                              (None, 7, 7, 128)                0          
_____________________________________________________________________________________________
conv5_block2_1_relu (Activation)                 (None, 7, 7, 128)                0          
_____________________________________________________________________________________________
lambda_324 (Lambda)                              (None, 7, 7, 128)                0          
_____________________________________________________________________________________________
conv5_block2_2_conv (Conv2D)                     (None, 7, 7, 32)                 36864      
_____________________________________________________________________________________________
lambda_325 (Lambda)                              (None, 7, 7, 32)                 0          
_____________________________________________________________________________________________
conv5_block2_concat (Concatenate)                (None, 7, 7, 576)                0                                                                                                       
_____________________________________________________________________________________________
lambda_326 (Lambda)                              (None, 7, 7, 576)                0          
_____________________________________________________________________________________________
conv5_block3_0_bn (BatchNormalization)           (None, 7, 7, 576)                2304       
_____________________________________________________________________________________________
lambda_327 (Lambda)                              (None, 7, 7, 576)                0          
_____________________________________________________________________________________________
conv5_block3_0_relu (Activation)                 (None, 7, 7, 576)                0          
_____________________________________________________________________________________________
lambda_328 (Lambda)                              (None, 7, 7, 576)                0          
_____________________________________________________________________________________________
conv5_block3_1_conv (Conv2D)                     (None, 7, 7, 128)                73728      
_____________________________________________________________________________________________
lambda_329 (Lambda)                              (None, 7, 7, 128)                0          
_____________________________________________________________________________________________
conv5_block3_1_bn (BatchNormalization)           (None, 7, 7, 128)                512        
_____________________________________________________________________________________________
lambda_330 (Lambda)                              (None, 7, 7, 128)                0          
_____________________________________________________________________________________________
conv5_block3_1_relu (Activation)                 (None, 7, 7, 128)                0          
_____________________________________________________________________________________________
lambda_331 (Lambda)                              (None, 7, 7, 128)                0          
_____________________________________________________________________________________________
conv5_block3_2_conv (Conv2D)                     (None, 7, 7, 32)                 36864      
_____________________________________________________________________________________________
lambda_332 (Lambda)                              (None, 7, 7, 32)                 0          
_____________________________________________________________________________________________
conv5_block3_concat (Concatenate)                (None, 7, 7, 608)                0                                                                                                       
_____________________________________________________________________________________________
lambda_333 (Lambda)                              (None, 7, 7, 608)                0          
_____________________________________________________________________________________________
conv5_block4_0_bn (BatchNormalization)           (None, 7, 7, 608)                2432       
_____________________________________________________________________________________________
lambda_334 (Lambda)                              (None, 7, 7, 608)                0          
_____________________________________________________________________________________________
conv5_block4_0_relu (Activation)                 (None, 7, 7, 608)                0          
_____________________________________________________________________________________________
lambda_335 (Lambda)                              (None, 7, 7, 608)                0          
_____________________________________________________________________________________________
conv5_block4_1_conv (Conv2D)                     (None, 7, 7, 128)                77824      
_____________________________________________________________________________________________
lambda_336 (Lambda)                              (None, 7, 7, 128)                0          
_____________________________________________________________________________________________
conv5_block4_1_bn (BatchNormalization)           (None, 7, 7, 128)                512        
_____________________________________________________________________________________________
lambda_337 (Lambda)                              (None, 7, 7, 128)                0          
_____________________________________________________________________________________________
conv5_block4_1_relu (Activation)                 (None, 7, 7, 128)                0          
_____________________________________________________________________________________________
lambda_338 (Lambda)                              (None, 7, 7, 128)                0          
_____________________________________________________________________________________________
conv5_block4_2_conv (Conv2D)                     (None, 7, 7, 32)                 36864      
_____________________________________________________________________________________________
lambda_339 (Lambda)                              (None, 7, 7, 32)                 0          
_____________________________________________________________________________________________
conv5_block4_concat (Concatenate)                (None, 7, 7, 640)                0                                                                                                       
_____________________________________________________________________________________________
lambda_340 (Lambda)                              (None, 7, 7, 640)                0          
_____________________________________________________________________________________________
conv5_block5_0_bn (BatchNormalization)           (None, 7, 7, 640)                2560       
_____________________________________________________________________________________________
lambda_341 (Lambda)                              (None, 7, 7, 640)                0          
_____________________________________________________________________________________________
conv5_block5_0_relu (Activation)                 (None, 7, 7, 640)                0          
_____________________________________________________________________________________________
lambda_342 (Lambda)                              (None, 7, 7, 640)                0          
_____________________________________________________________________________________________
conv5_block5_1_conv (Conv2D)                     (None, 7, 7, 128)                81920      
_____________________________________________________________________________________________
lambda_343 (Lambda)                              (None, 7, 7, 128)                0          
_____________________________________________________________________________________________
conv5_block5_1_bn (BatchNormalization)           (None, 7, 7, 128)                512        
_____________________________________________________________________________________________
lambda_344 (Lambda)                              (None, 7, 7, 128)                0          
_____________________________________________________________________________________________
conv5_block5_1_relu (Activation)                 (None, 7, 7, 128)                0          
_____________________________________________________________________________________________
lambda_345 (Lambda)                              (None, 7, 7, 128)                0          
_____________________________________________________________________________________________
conv5_block5_2_conv (Conv2D)                     (None, 7, 7, 32)                 36864      
_____________________________________________________________________________________________
lambda_346 (Lambda)                              (None, 7, 7, 32)                 0          
_____________________________________________________________________________________________
conv5_block5_concat (Concatenate)                (None, 7, 7, 672)                0                                                                                                       
_____________________________________________________________________________________________
lambda_347 (Lambda)                              (None, 7, 7, 672)                0          
_____________________________________________________________________________________________
conv5_block6_0_bn (BatchNormalization)           (None, 7, 7, 672)                2688       
_____________________________________________________________________________________________
lambda_348 (Lambda)                              (None, 7, 7, 672)                0          
_____________________________________________________________________________________________
conv5_block6_0_relu (Activation)                 (None, 7, 7, 672)                0          
_____________________________________________________________________________________________
lambda_349 (Lambda)                              (None, 7, 7, 672)                0          
_____________________________________________________________________________________________
conv5_block6_1_conv (Conv2D)                     (None, 7, 7, 128)                86016      
_____________________________________________________________________________________________
lambda_350 (Lambda)                              (None, 7, 7, 128)                0          
_____________________________________________________________________________________________
conv5_block6_1_bn (BatchNormalization)           (None, 7, 7, 128)                512        
_____________________________________________________________________________________________
lambda_351 (Lambda)                              (None, 7, 7, 128)                0          
_____________________________________________________________________________________________
conv5_block6_1_relu (Activation)                 (None, 7, 7, 128)                0          
_____________________________________________________________________________________________
lambda_352 (Lambda)                              (None, 7, 7, 128)                0          
_____________________________________________________________________________________________
conv5_block6_2_conv (Conv2D)                     (None, 7, 7, 32)                 36864      
_____________________________________________________________________________________________
lambda_353 (Lambda)                              (None, 7, 7, 32)                 0          
_____________________________________________________________________________________________
conv5_block6_concat (Concatenate)                (None, 7, 7, 704)                0                                                                                                       
_____________________________________________________________________________________________
lambda_354 (Lambda)                              (None, 7, 7, 704)                0          
_____________________________________________________________________________________________
conv5_block7_0_bn (BatchNormalization)           (None, 7, 7, 704)                2816       
_____________________________________________________________________________________________
lambda_355 (Lambda)                              (None, 7, 7, 704)                0          
_____________________________________________________________________________________________
conv5_block7_0_relu (Activation)                 (None, 7, 7, 704)                0          
_____________________________________________________________________________________________
lambda_356 (Lambda)                              (None, 7, 7, 704)                0          
_____________________________________________________________________________________________
conv5_block7_1_conv (Conv2D)                     (None, 7, 7, 128)                90112      
_____________________________________________________________________________________________
lambda_357 (Lambda)                              (None, 7, 7, 128)                0          
_____________________________________________________________________________________________
conv5_block7_1_bn (BatchNormalization)           (None, 7, 7, 128)                512        
_____________________________________________________________________________________________
lambda_358 (Lambda)                              (None, 7, 7, 128)                0          
_____________________________________________________________________________________________
conv5_block7_1_relu (Activation)                 (None, 7, 7, 128)                0          
_____________________________________________________________________________________________
lambda_359 (Lambda)                              (None, 7, 7, 128)                0          
_____________________________________________________________________________________________
conv5_block7_2_conv (Conv2D)                     (None, 7, 7, 32)                 36864      
_____________________________________________________________________________________________
lambda_360 (Lambda)                              (None, 7, 7, 32)                 0          
_____________________________________________________________________________________________
conv5_block7_concat (Concatenate)                (None, 7, 7, 736)                0                                                                                                       
_____________________________________________________________________________________________
lambda_361 (Lambda)                              (None, 7, 7, 736)                0          
_____________________________________________________________________________________________
conv5_block8_0_bn (BatchNormalization)           (None, 7, 7, 736)                2944       
_____________________________________________________________________________________________
lambda_362 (Lambda)                              (None, 7, 7, 736)                0          
_____________________________________________________________________________________________
conv5_block8_0_relu (Activation)                 (None, 7, 7, 736)                0          
_____________________________________________________________________________________________
lambda_363 (Lambda)                              (None, 7, 7, 736)                0          
_____________________________________________________________________________________________
conv5_block8_1_conv (Conv2D)                     (None, 7, 7, 128)                94208      
_____________________________________________________________________________________________
lambda_364 (Lambda)                              (None, 7, 7, 128)                0          
_____________________________________________________________________________________________
conv5_block8_1_bn (BatchNormalization)           (None, 7, 7, 128)                512        
_____________________________________________________________________________________________
lambda_365 (Lambda)                              (None, 7, 7, 128)                0          
_____________________________________________________________________________________________
conv5_block8_1_relu (Activation)                 (None, 7, 7, 128)                0          
_____________________________________________________________________________________________
lambda_366 (Lambda)                              (None, 7, 7, 128)                0          
_____________________________________________________________________________________________
conv5_block8_2_conv (Conv2D)                     (None, 7, 7, 32)                 36864      
_____________________________________________________________________________________________
lambda_367 (Lambda)                              (None, 7, 7, 32)                 0          
_____________________________________________________________________________________________
conv5_block8_concat (Concatenate)                (None, 7, 7, 768)                0                                                                                                       
_____________________________________________________________________________________________
lambda_368 (Lambda)                              (None, 7, 7, 768)                0          
_____________________________________________________________________________________________
conv5_block9_0_bn (BatchNormalization)           (None, 7, 7, 768)                3072       
_____________________________________________________________________________________________
lambda_369 (Lambda)                              (None, 7, 7, 768)                0          
_____________________________________________________________________________________________
conv5_block9_0_relu (Activation)                 (None, 7, 7, 768)                0          
_____________________________________________________________________________________________
lambda_370 (Lambda)                              (None, 7, 7, 768)                0          
_____________________________________________________________________________________________
conv5_block9_1_conv (Conv2D)                     (None, 7, 7, 128)                98304      
_____________________________________________________________________________________________
lambda_371 (Lambda)                              (None, 7, 7, 128)                0          
_____________________________________________________________________________________________
conv5_block9_1_bn (BatchNormalization)           (None, 7, 7, 128)                512        
_____________________________________________________________________________________________
lambda_372 (Lambda)                              (None, 7, 7, 128)                0          
_____________________________________________________________________________________________
conv5_block9_1_relu (Activation)                 (None, 7, 7, 128)                0          
_____________________________________________________________________________________________
lambda_373 (Lambda)                              (None, 7, 7, 128)                0          
_____________________________________________________________________________________________
conv5_block9_2_conv (Conv2D)                     (None, 7, 7, 32)                 36864      
_____________________________________________________________________________________________
lambda_374 (Lambda)                              (None, 7, 7, 32)                 0          
_____________________________________________________________________________________________
conv5_block9_concat (Concatenate)                (None, 7, 7, 800)                0                                                                                                       
_____________________________________________________________________________________________
lambda_375 (Lambda)                              (None, 7, 7, 800)                0          
_____________________________________________________________________________________________
conv5_block10_0_bn (BatchNormalization)          (None, 7, 7, 800)                3200       
_____________________________________________________________________________________________
lambda_376 (Lambda)                              (None, 7, 7, 800)                0          
_____________________________________________________________________________________________
conv5_block10_0_relu (Activation)                (None, 7, 7, 800)                0          
_____________________________________________________________________________________________
lambda_377 (Lambda)                              (None, 7, 7, 800)                0          
_____________________________________________________________________________________________
conv5_block10_1_conv (Conv2D)                    (None, 7, 7, 128)                102400     
_____________________________________________________________________________________________
lambda_378 (Lambda)                              (None, 7, 7, 128)                0          
_____________________________________________________________________________________________
conv5_block10_1_bn (BatchNormalization)          (None, 7, 7, 128)                512        
_____________________________________________________________________________________________
lambda_379 (Lambda)                              (None, 7, 7, 128)                0          
_____________________________________________________________________________________________
conv5_block10_1_relu (Activation)                (None, 7, 7, 128)                0          
_____________________________________________________________________________________________
lambda_380 (Lambda)                              (None, 7, 7, 128)                0          
_____________________________________________________________________________________________
conv5_block10_2_conv (Conv2D)                    (None, 7, 7, 32)                 36864      
_____________________________________________________________________________________________
lambda_381 (Lambda)                              (None, 7, 7, 32)                 0          
_____________________________________________________________________________________________
conv5_block10_concat (Concatenate)               (None, 7, 7, 832)                0                                                                                                       
_____________________________________________________________________________________________
lambda_382 (Lambda)                              (None, 7, 7, 832)                0          
_____________________________________________________________________________________________
conv5_block11_0_bn (BatchNormalization)          (None, 7, 7, 832)                3328       
_____________________________________________________________________________________________
lambda_383 (Lambda)                              (None, 7, 7, 832)                0          
_____________________________________________________________________________________________
conv5_block11_0_relu (Activation)                (None, 7, 7, 832)                0          
_____________________________________________________________________________________________
lambda_384 (Lambda)                              (None, 7, 7, 832)                0          
_____________________________________________________________________________________________
conv5_block11_1_conv (Conv2D)                    (None, 7, 7, 128)                106496     
_____________________________________________________________________________________________
lambda_385 (Lambda)                              (None, 7, 7, 128)                0          
_____________________________________________________________________________________________
conv5_block11_1_bn (BatchNormalization)          (None, 7, 7, 128)                512        
_____________________________________________________________________________________________
lambda_386 (Lambda)                              (None, 7, 7, 128)                0          
_____________________________________________________________________________________________
conv5_block11_1_relu (Activation)                (None, 7, 7, 128)                0          
_____________________________________________________________________________________________
lambda_387 (Lambda)                              (None, 7, 7, 128)                0          
_____________________________________________________________________________________________
conv5_block11_2_conv (Conv2D)                    (None, 7, 7, 32)                 36864      
_____________________________________________________________________________________________
lambda_388 (Lambda)                              (None, 7, 7, 32)                 0          
_____________________________________________________________________________________________
conv5_block11_concat (Concatenate)               (None, 7, 7, 864)                0                                                                                                       
_____________________________________________________________________________________________
lambda_389 (Lambda)                              (None, 7, 7, 864)                0          
_____________________________________________________________________________________________
conv5_block12_0_bn (BatchNormalization)          (None, 7, 7, 864)                3456       
_____________________________________________________________________________________________
lambda_390 (Lambda)                              (None, 7, 7, 864)                0          
_____________________________________________________________________________________________
conv5_block12_0_relu (Activation)                (None, 7, 7, 864)                0          
_____________________________________________________________________________________________
lambda_391 (Lambda)                              (None, 7, 7, 864)                0          
_____________________________________________________________________________________________
conv5_block12_1_conv (Conv2D)                    (None, 7, 7, 128)                110592     
_____________________________________________________________________________________________
lambda_392 (Lambda)                              (None, 7, 7, 128)                0          
_____________________________________________________________________________________________
conv5_block12_1_bn (BatchNormalization)          (None, 7, 7, 128)                512        
_____________________________________________________________________________________________
lambda_393 (Lambda)                              (None, 7, 7, 128)                0          
_____________________________________________________________________________________________
conv5_block12_1_relu (Activation)                (None, 7, 7, 128)                0          
_____________________________________________________________________________________________
lambda_394 (Lambda)                              (None, 7, 7, 128)                0          
_____________________________________________________________________________________________
conv5_block12_2_conv (Conv2D)                    (None, 7, 7, 32)                 36864      
_____________________________________________________________________________________________
lambda_395 (Lambda)                              (None, 7, 7, 32)                 0          
_____________________________________________________________________________________________
conv5_block12_concat (Concatenate)               (None, 7, 7, 896)                0                                                                                                       
_____________________________________________________________________________________________
lambda_396 (Lambda)                              (None, 7, 7, 896)                0          
_____________________________________________________________________________________________
conv5_block13_0_bn (BatchNormalization)          (None, 7, 7, 896)                3584       
_____________________________________________________________________________________________
lambda_397 (Lambda)                              (None, 7, 7, 896)                0          
_____________________________________________________________________________________________
conv5_block13_0_relu (Activation)                (None, 7, 7, 896)                0          
_____________________________________________________________________________________________
lambda_398 (Lambda)                              (None, 7, 7, 896)                0          
_____________________________________________________________________________________________
conv5_block13_1_conv (Conv2D)                    (None, 7, 7, 128)                114688     
_____________________________________________________________________________________________
lambda_399 (Lambda)                              (None, 7, 7, 128)                0          
_____________________________________________________________________________________________
conv5_block13_1_bn (BatchNormalization)          (None, 7, 7, 128)                512        
_____________________________________________________________________________________________
lambda_400 (Lambda)                              (None, 7, 7, 128)                0          
_____________________________________________________________________________________________
conv5_block13_1_relu (Activation)                (None, 7, 7, 128)                0          
_____________________________________________________________________________________________
lambda_401 (Lambda)                              (None, 7, 7, 128)                0          
_____________________________________________________________________________________________
conv5_block13_2_conv (Conv2D)                    (None, 7, 7, 32)                 36864      
_____________________________________________________________________________________________
lambda_402 (Lambda)                              (None, 7, 7, 32)                 0          
_____________________________________________________________________________________________
conv5_block13_concat (Concatenate)               (None, 7, 7, 928)                0                                                                                                       
_____________________________________________________________________________________________
lambda_403 (Lambda)                              (None, 7, 7, 928)                0          
_____________________________________________________________________________________________
conv5_block14_0_bn (BatchNormalization)          (None, 7, 7, 928)                3712       
_____________________________________________________________________________________________
lambda_404 (Lambda)                              (None, 7, 7, 928)                0          
_____________________________________________________________________________________________
conv5_block14_0_relu (Activation)                (None, 7, 7, 928)                0          
_____________________________________________________________________________________________
lambda_405 (Lambda)                              (None, 7, 7, 928)                0          
_____________________________________________________________________________________________
conv5_block14_1_conv (Conv2D)                    (None, 7, 7, 128)                118784     
_____________________________________________________________________________________________
lambda_406 (Lambda)                              (None, 7, 7, 128)                0          
_____________________________________________________________________________________________
conv5_block14_1_bn (BatchNormalization)          (None, 7, 7, 128)                512        
_____________________________________________________________________________________________
lambda_407 (Lambda)                              (None, 7, 7, 128)                0          
_____________________________________________________________________________________________
conv5_block14_1_relu (Activation)                (None, 7, 7, 128)                0          
_____________________________________________________________________________________________
lambda_408 (Lambda)                              (None, 7, 7, 128)                0          
_____________________________________________________________________________________________
conv5_block14_2_conv (Conv2D)                    (None, 7, 7, 32)                 36864      
_____________________________________________________________________________________________
lambda_409 (Lambda)                              (None, 7, 7, 32)                 0          
_____________________________________________________________________________________________
conv5_block14_concat (Concatenate)               (None, 7, 7, 960)                0                                                                                                       
_____________________________________________________________________________________________
lambda_410 (Lambda)                              (None, 7, 7, 960)                0          
_____________________________________________________________________________________________
conv5_block15_0_bn (BatchNormalization)          (None, 7, 7, 960)                3840       
_____________________________________________________________________________________________
lambda_411 (Lambda)                              (None, 7, 7, 960)                0          
_____________________________________________________________________________________________
conv5_block15_0_relu (Activation)                (None, 7, 7, 960)                0          
_____________________________________________________________________________________________
lambda_412 (Lambda)                              (None, 7, 7, 960)                0          
_____________________________________________________________________________________________
conv5_block15_1_conv (Conv2D)                    (None, 7, 7, 128)                122880     
_____________________________________________________________________________________________
lambda_413 (Lambda)                              (None, 7, 7, 128)                0          
_____________________________________________________________________________________________
conv5_block15_1_bn (BatchNormalization)          (None, 7, 7, 128)                512        
_____________________________________________________________________________________________
lambda_414 (Lambda)                              (None, 7, 7, 128)                0          
_____________________________________________________________________________________________
conv5_block15_1_relu (Activation)                (None, 7, 7, 128)                0          
_____________________________________________________________________________________________
lambda_415 (Lambda)                              (None, 7, 7, 128)                0          
_____________________________________________________________________________________________
conv5_block15_2_conv (Conv2D)                    (None, 7, 7, 32)                 36864      
_____________________________________________________________________________________________
lambda_416 (Lambda)                              (None, 7, 7, 32)                 0          
_____________________________________________________________________________________________
conv5_block15_concat (Concatenate)               (None, 7, 7, 992)                0                                                                                                       
_____________________________________________________________________________________________
lambda_417 (Lambda)                              (None, 7, 7, 992)                0          
_____________________________________________________________________________________________
conv5_block16_0_bn (BatchNormalization)          (None, 7, 7, 992)                3968       
_____________________________________________________________________________________________
lambda_418 (Lambda)                              (None, 7, 7, 992)                0          
_____________________________________________________________________________________________
conv5_block16_0_relu (Activation)                (None, 7, 7, 992)                0          
_____________________________________________________________________________________________
lambda_419 (Lambda)                              (None, 7, 7, 992)                0          
_____________________________________________________________________________________________
conv5_block16_1_conv (Conv2D)                    (None, 7, 7, 128)                126976     
_____________________________________________________________________________________________
lambda_420 (Lambda)                              (None, 7, 7, 128)                0          
_____________________________________________________________________________________________
conv5_block16_1_bn (BatchNormalization)          (None, 7, 7, 128)                512        
_____________________________________________________________________________________________
lambda_421 (Lambda)                              (None, 7, 7, 128)                0          
_____________________________________________________________________________________________
conv5_block16_1_relu (Activation)                (None, 7, 7, 128)                0          
_____________________________________________________________________________________________
lambda_422 (Lambda)                              (None, 7, 7, 128)                0          
_____________________________________________________________________________________________
conv5_block16_2_conv (Conv2D)                    (None, 7, 7, 32)                 36864      
_____________________________________________________________________________________________
lambda_423 (Lambda)                              (None, 7, 7, 32)                 0          
_____________________________________________________________________________________________
conv5_block16_concat (Concatenate)               (None, 7, 7, 1024)               0                                                                                                       
_____________________________________________________________________________________________
lambda_424 (Lambda)                              (None, 7, 7, 1024)               0          
_____________________________________________________________________________________________
bn (BatchNormalization)                          (None, 7, 7, 1024)               4096       
_____________________________________________________________________________________________
lambda_425 (Lambda)                              (None, 7, 7, 1024)               0          
_____________________________________________________________________________________________
relu (Activation)                                (None, 7, 7, 1024)               0          
_____________________________________________________________________________________________
lambda_426 (Lambda)                              (None, 7, 7, 1024)               0          
_____________________________________________________________________________________________
avg_pool (GlobalAveragePooling2D)                (None, 1024)                     0          
_____________________________________________________________________________________________
lambda_427 (Lambda)                              (None, 1024)                     0          
_____________________________________________________________________________________________
predictions (Dense)                              (None, 1000)                     1025000    
_____________________________________________________________________________________________
lambda_428 (Lambda)                              (None, 1000)                     0          
=============================================================================================
Total params: 8,062,504
Trainable params: 7,978,856
Non-trainable params: 83,648
_____________________________________________________________________________________________
None
