…
__________________________________________________________________________________________________________________________
Layer (type)                                                      Output Shape                                Param #     
==========================================================================================================================
input_1 (InputLayer)                                              [(None, 224, 224, 3)]                       0           
__________________________________________________________________________________________________________________________
lambda (Lambda)                                                   (None, 224, 224, 3)                         0           
__________________________________________________________________________________________________________________________
conv2d (Conv2D)                                                   (None, 112, 112, 32)                        896         
__________________________________________________________________________________________________________________________
lambda_1 (Lambda)                                                 (None, 112, 112, 32)                        0           
__________________________________________________________________________________________________________________________
batch_normalization (BatchNormalization)                          (None, 112, 112, 32)                        128         
__________________________________________________________________________________________________________________________
lambda_2 (Lambda)                                                 (None, 112, 112, 32)                        0           
__________________________________________________________________________________________________________________________
activation (Activation)                                           (None, 112, 112, 32)                        0           
__________________________________________________________________________________________________________________________
lambda_3 (Lambda)                                                 (None, 112, 112, 32)                        0           
__________________________________________________________________________________________________________________________
conv2d_1 (Conv2D)                                                 (None, 112, 112, 32)                        1056        
__________________________________________________________________________________________________________________________
lambda_4 (Lambda)                                                 (None, 112, 112, 32)                        0           
__________________________________________________________________________________________________________________________
batch_normalization_1 (BatchNormalization)                        (None, 112, 112, 32)                        128         
__________________________________________________________________________________________________________________________
lambda_5 (Lambda)                                                 (None, 112, 112, 32)                        0           
__________________________________________________________________________________________________________________________
activation_1 (Activation)                                         (None, 112, 112, 32)                        0           
__________________________________________________________________________________________________________________________
lambda_6 (Lambda)                                                 (None, 112, 112, 32)                        0           
__________________________________________________________________________________________________________________________
depthwise_conv2d (DepthwiseConv2D)                                (None, 112, 112, 32)                        320         
__________________________________________________________________________________________________________________________
lambda_7 (Lambda)                                                 (None, 112, 112, 32)                        0           
__________________________________________________________________________________________________________________________
batch_normalization_2 (BatchNormalization)                        (None, 112, 112, 32)                        128         
__________________________________________________________________________________________________________________________
lambda_8 (Lambda)                                                 (None, 112, 112, 32)                        0           
__________________________________________________________________________________________________________________________
activation_2 (Activation)                                         (None, 112, 112, 32)                        0           
__________________________________________________________________________________________________________________________
lambda_9 (Lambda)                                                 (None, 112, 112, 32)                        0           
__________________________________________________________________________________________________________________________
conv2d_2 (Conv2D)                                                 (None, 112, 112, 16)                        528         
__________________________________________________________________________________________________________________________
lambda_10 (Lambda)                                                (None, 112, 112, 16)                        0           
__________________________________________________________________________________________________________________________
batch_normalization_3 (BatchNormalization)                        (None, 112, 112, 16)                        64          
__________________________________________________________________________________________________________________________
lambda_11 (Lambda)                                                (None, 112, 112, 16)                        0           
__________________________________________________________________________________________________________________________
conv2d_3 (Conv2D)                                                 (None, 112, 112, 96)                        1632        
__________________________________________________________________________________________________________________________
lambda_12 (Lambda)                                                (None, 112, 112, 96)                        0           
__________________________________________________________________________________________________________________________
batch_normalization_4 (BatchNormalization)                        (None, 112, 112, 96)                        384         
__________________________________________________________________________________________________________________________
lambda_13 (Lambda)                                                (None, 112, 112, 96)                        0           
__________________________________________________________________________________________________________________________
activation_3 (Activation)                                         (None, 112, 112, 96)                        0           
__________________________________________________________________________________________________________________________
lambda_14 (Lambda)                                                (None, 112, 112, 96)                        0           
__________________________________________________________________________________________________________________________
depthwise_conv2d_1 (DepthwiseConv2D)                              (None, 56, 56, 96)                          960         
__________________________________________________________________________________________________________________________
lambda_15 (Lambda)                                                (None, 56, 56, 96)                          0           
__________________________________________________________________________________________________________________________
batch_normalization_5 (BatchNormalization)                        (None, 56, 56, 96)                          384         
__________________________________________________________________________________________________________________________
lambda_16 (Lambda)                                                (None, 56, 56, 96)                          0           
__________________________________________________________________________________________________________________________
activation_4 (Activation)                                         (None, 56, 56, 96)                          0           
__________________________________________________________________________________________________________________________
lambda_17 (Lambda)                                                (None, 56, 56, 96)                          0           
__________________________________________________________________________________________________________________________
conv2d_4 (Conv2D)                                                 (None, 56, 56, 24)                          2328        
__________________________________________________________________________________________________________________________
lambda_18 (Lambda)                                                (None, 56, 56, 24)                          0           
__________________________________________________________________________________________________________________________
batch_normalization_6 (BatchNormalization)                        (None, 56, 56, 24)                          96          
__________________________________________________________________________________________________________________________
lambda_19 (Lambda)                                                (None, 56, 56, 24)                          0           
__________________________________________________________________________________________________________________________
conv2d_5 (Conv2D)                                                 (None, 56, 56, 144)                         3600        
__________________________________________________________________________________________________________________________
lambda_20 (Lambda)                                                (None, 56, 56, 144)                         0           
__________________________________________________________________________________________________________________________
batch_normalization_7 (BatchNormalization)                        (None, 56, 56, 144)                         576         
__________________________________________________________________________________________________________________________
lambda_21 (Lambda)                                                (None, 56, 56, 144)                         0           
__________________________________________________________________________________________________________________________
activation_5 (Activation)                                         (None, 56, 56, 144)                         0           
__________________________________________________________________________________________________________________________
lambda_22 (Lambda)                                                (None, 56, 56, 144)                         0           
__________________________________________________________________________________________________________________________
depthwise_conv2d_2 (DepthwiseConv2D)                              (None, 56, 56, 144)                         1440        
__________________________________________________________________________________________________________________________
lambda_23 (Lambda)                                                (None, 56, 56, 144)                         0           
__________________________________________________________________________________________________________________________
batch_normalization_8 (BatchNormalization)                        (None, 56, 56, 144)                         576         
__________________________________________________________________________________________________________________________
lambda_24 (Lambda)                                                (None, 56, 56, 144)                         0           
__________________________________________________________________________________________________________________________
activation_6 (Activation)                                         (None, 56, 56, 144)                         0           
__________________________________________________________________________________________________________________________
lambda_25 (Lambda)                                                (None, 56, 56, 144)                         0           
__________________________________________________________________________________________________________________________
conv2d_6 (Conv2D)                                                 (None, 56, 56, 24)                          3480        
__________________________________________________________________________________________________________________________
lambda_26 (Lambda)                                                (None, 56, 56, 24)                          0           
__________________________________________________________________________________________________________________________
batch_normalization_9 (BatchNormalization)                        (None, 56, 56, 24)                          96          
__________________________________________________________________________________________________________________________
lambda_27 (Lambda)                                                (None, 56, 56, 24)                          0           
__________________________________________________________________________________________________________________________
add (Add)                                                         (None, 56, 56, 24)                          0                                                                                                                                     
__________________________________________________________________________________________________________________________
lambda_28 (Lambda)                                                (None, 56, 56, 24)                          0           
__________________________________________________________________________________________________________________________
conv2d_7 (Conv2D)                                                 (None, 56, 56, 144)                         3600        
__________________________________________________________________________________________________________________________
lambda_29 (Lambda)                                                (None, 56, 56, 144)                         0           
__________________________________________________________________________________________________________________________
batch_normalization_10 (BatchNormalization)                       (None, 56, 56, 144)                         576         
__________________________________________________________________________________________________________________________
lambda_30 (Lambda)                                                (None, 56, 56, 144)                         0           
__________________________________________________________________________________________________________________________
activation_7 (Activation)                                         (None, 56, 56, 144)                         0           
__________________________________________________________________________________________________________________________
lambda_31 (Lambda)                                                (None, 56, 56, 144)                         0           
__________________________________________________________________________________________________________________________
depthwise_conv2d_3 (DepthwiseConv2D)                              (None, 28, 28, 144)                         1440        
__________________________________________________________________________________________________________________________
lambda_32 (Lambda)                                                (None, 28, 28, 144)                         0           
__________________________________________________________________________________________________________________________
batch_normalization_11 (BatchNormalization)                       (None, 28, 28, 144)                         576         
__________________________________________________________________________________________________________________________
lambda_33 (Lambda)                                                (None, 28, 28, 144)                         0           
__________________________________________________________________________________________________________________________
activation_8 (Activation)                                         (None, 28, 28, 144)                         0           
__________________________________________________________________________________________________________________________
lambda_34 (Lambda)                                                (None, 28, 28, 144)                         0           
__________________________________________________________________________________________________________________________
conv2d_8 (Conv2D)                                                 (None, 28, 28, 32)                          4640        
__________________________________________________________________________________________________________________________
lambda_35 (Lambda)                                                (None, 28, 28, 32)                          0           
__________________________________________________________________________________________________________________________
batch_normalization_12 (BatchNormalization)                       (None, 28, 28, 32)                          128         
__________________________________________________________________________________________________________________________
lambda_36 (Lambda)                                                (None, 28, 28, 32)                          0           
__________________________________________________________________________________________________________________________
conv2d_9 (Conv2D)                                                 (None, 28, 28, 192)                         6336        
__________________________________________________________________________________________________________________________
lambda_37 (Lambda)                                                (None, 28, 28, 192)                         0           
__________________________________________________________________________________________________________________________
batch_normalization_13 (BatchNormalization)                       (None, 28, 28, 192)                         768         
__________________________________________________________________________________________________________________________
lambda_38 (Lambda)                                                (None, 28, 28, 192)                         0           
__________________________________________________________________________________________________________________________
activation_9 (Activation)                                         (None, 28, 28, 192)                         0           
__________________________________________________________________________________________________________________________
lambda_39 (Lambda)                                                (None, 28, 28, 192)                         0           
__________________________________________________________________________________________________________________________
depthwise_conv2d_4 (DepthwiseConv2D)                              (None, 28, 28, 192)                         1920        
__________________________________________________________________________________________________________________________
lambda_40 (Lambda)                                                (None, 28, 28, 192)                         0           
__________________________________________________________________________________________________________________________
batch_normalization_14 (BatchNormalization)                       (None, 28, 28, 192)                         768         
__________________________________________________________________________________________________________________________
lambda_41 (Lambda)                                                (None, 28, 28, 192)                         0           
__________________________________________________________________________________________________________________________
activation_10 (Activation)                                        (None, 28, 28, 192)                         0           
__________________________________________________________________________________________________________________________
lambda_42 (Lambda)                                                (None, 28, 28, 192)                         0           
__________________________________________________________________________________________________________________________
conv2d_10 (Conv2D)                                                (None, 28, 28, 32)                          6176        
__________________________________________________________________________________________________________________________
lambda_43 (Lambda)                                                (None, 28, 28, 32)                          0           
__________________________________________________________________________________________________________________________
batch_normalization_15 (BatchNormalization)                       (None, 28, 28, 32)                          128         
__________________________________________________________________________________________________________________________
lambda_44 (Lambda)                                                (None, 28, 28, 32)                          0           
__________________________________________________________________________________________________________________________
add_1 (Add)                                                       (None, 28, 28, 32)                          0                                                                                                                                     
__________________________________________________________________________________________________________________________
lambda_45 (Lambda)                                                (None, 28, 28, 32)                          0           
__________________________________________________________________________________________________________________________
conv2d_11 (Conv2D)                                                (None, 28, 28, 192)                         6336        
__________________________________________________________________________________________________________________________
lambda_46 (Lambda)                                                (None, 28, 28, 192)                         0           
__________________________________________________________________________________________________________________________
batch_normalization_16 (BatchNormalization)                       (None, 28, 28, 192)                         768         
__________________________________________________________________________________________________________________________
lambda_47 (Lambda)                                                (None, 28, 28, 192)                         0           
__________________________________________________________________________________________________________________________
activation_11 (Activation)                                        (None, 28, 28, 192)                         0           
__________________________________________________________________________________________________________________________
lambda_48 (Lambda)                                                (None, 28, 28, 192)                         0           
__________________________________________________________________________________________________________________________
depthwise_conv2d_5 (DepthwiseConv2D)                              (None, 28, 28, 192)                         1920        
__________________________________________________________________________________________________________________________
lambda_49 (Lambda)                                                (None, 28, 28, 192)                         0           
__________________________________________________________________________________________________________________________
batch_normalization_17 (BatchNormalization)                       (None, 28, 28, 192)                         768         
__________________________________________________________________________________________________________________________
lambda_50 (Lambda)                                                (None, 28, 28, 192)                         0           
__________________________________________________________________________________________________________________________
activation_12 (Activation)                                        (None, 28, 28, 192)                         0           
__________________________________________________________________________________________________________________________
lambda_51 (Lambda)                                                (None, 28, 28, 192)                         0           
__________________________________________________________________________________________________________________________
conv2d_12 (Conv2D)                                                (None, 28, 28, 32)                          6176        
__________________________________________________________________________________________________________________________
lambda_52 (Lambda)                                                (None, 28, 28, 32)                          0           
__________________________________________________________________________________________________________________________
batch_normalization_18 (BatchNormalization)                       (None, 28, 28, 32)                          128         
__________________________________________________________________________________________________________________________
lambda_53 (Lambda)                                                (None, 28, 28, 32)                          0           
__________________________________________________________________________________________________________________________
add_2 (Add)                                                       (None, 28, 28, 32)                          0                                                                                                                                     
__________________________________________________________________________________________________________________________
lambda_54 (Lambda)                                                (None, 28, 28, 32)                          0           
__________________________________________________________________________________________________________________________
conv2d_13 (Conv2D)                                                (None, 28, 28, 192)                         6336        
__________________________________________________________________________________________________________________________
lambda_55 (Lambda)                                                (None, 28, 28, 192)                         0           
__________________________________________________________________________________________________________________________
batch_normalization_19 (BatchNormalization)                       (None, 28, 28, 192)                         768         
__________________________________________________________________________________________________________________________
lambda_56 (Lambda)                                                (None, 28, 28, 192)                         0           
__________________________________________________________________________________________________________________________
activation_13 (Activation)                                        (None, 28, 28, 192)                         0           
__________________________________________________________________________________________________________________________
lambda_57 (Lambda)                                                (None, 28, 28, 192)                         0           
__________________________________________________________________________________________________________________________
depthwise_conv2d_6 (DepthwiseConv2D)                              (None, 14, 14, 192)                         1920        
__________________________________________________________________________________________________________________________
lambda_58 (Lambda)                                                (None, 14, 14, 192)                         0           
__________________________________________________________________________________________________________________________
batch_normalization_20 (BatchNormalization)                       (None, 14, 14, 192)                         768         
__________________________________________________________________________________________________________________________
lambda_59 (Lambda)                                                (None, 14, 14, 192)                         0           
__________________________________________________________________________________________________________________________
activation_14 (Activation)                                        (None, 14, 14, 192)                         0           
__________________________________________________________________________________________________________________________
lambda_60 (Lambda)                                                (None, 14, 14, 192)                         0           
__________________________________________________________________________________________________________________________
conv2d_14 (Conv2D)                                                (None, 14, 14, 64)                          12352       
__________________________________________________________________________________________________________________________
lambda_61 (Lambda)                                                (None, 14, 14, 64)                          0           
__________________________________________________________________________________________________________________________
batch_normalization_21 (BatchNormalization)                       (None, 14, 14, 64)                          256         
__________________________________________________________________________________________________________________________
lambda_62 (Lambda)                                                (None, 14, 14, 64)                          0           
__________________________________________________________________________________________________________________________
conv2d_15 (Conv2D)                                                (None, 14, 14, 384)                         24960       
__________________________________________________________________________________________________________________________
lambda_63 (Lambda)                                                (None, 14, 14, 384)                         0           
__________________________________________________________________________________________________________________________
batch_normalization_22 (BatchNormalization)                       (None, 14, 14, 384)                         1536        
__________________________________________________________________________________________________________________________
lambda_64 (Lambda)                                                (None, 14, 14, 384)                         0           
__________________________________________________________________________________________________________________________
activation_15 (Activation)                                        (None, 14, 14, 384)                         0           
__________________________________________________________________________________________________________________________
lambda_65 (Lambda)                                                (None, 14, 14, 384)                         0           
__________________________________________________________________________________________________________________________
depthwise_conv2d_7 (DepthwiseConv2D)                              (None, 14, 14, 384)                         3840        
__________________________________________________________________________________________________________________________
lambda_66 (Lambda)                                                (None, 14, 14, 384)                         0           
__________________________________________________________________________________________________________________________
batch_normalization_23 (BatchNormalization)                       (None, 14, 14, 384)                         1536        
__________________________________________________________________________________________________________________________
lambda_67 (Lambda)                                                (None, 14, 14, 384)                         0           
__________________________________________________________________________________________________________________________
activation_16 (Activation)                                        (None, 14, 14, 384)                         0           
__________________________________________________________________________________________________________________________
lambda_68 (Lambda)                                                (None, 14, 14, 384)                         0           
__________________________________________________________________________________________________________________________
conv2d_16 (Conv2D)                                                (None, 14, 14, 64)                          24640       
__________________________________________________________________________________________________________________________
lambda_69 (Lambda)                                                (None, 14, 14, 64)                          0           
__________________________________________________________________________________________________________________________
batch_normalization_24 (BatchNormalization)                       (None, 14, 14, 64)                          256         
__________________________________________________________________________________________________________________________
lambda_70 (Lambda)                                                (None, 14, 14, 64)                          0           
__________________________________________________________________________________________________________________________
add_3 (Add)                                                       (None, 14, 14, 64)                          0                                                                                                                                     
__________________________________________________________________________________________________________________________
lambda_71 (Lambda)                                                (None, 14, 14, 64)                          0           
__________________________________________________________________________________________________________________________
conv2d_17 (Conv2D)                                                (None, 14, 14, 384)                         24960       
__________________________________________________________________________________________________________________________
lambda_72 (Lambda)                                                (None, 14, 14, 384)                         0           
__________________________________________________________________________________________________________________________
batch_normalization_25 (BatchNormalization)                       (None, 14, 14, 384)                         1536        
__________________________________________________________________________________________________________________________
lambda_73 (Lambda)                                                (None, 14, 14, 384)                         0           
__________________________________________________________________________________________________________________________
activation_17 (Activation)                                        (None, 14, 14, 384)                         0           
__________________________________________________________________________________________________________________________
lambda_74 (Lambda)                                                (None, 14, 14, 384)                         0           
__________________________________________________________________________________________________________________________
depthwise_conv2d_8 (DepthwiseConv2D)                              (None, 14, 14, 384)                         3840        
__________________________________________________________________________________________________________________________
lambda_75 (Lambda)                                                (None, 14, 14, 384)                         0           
__________________________________________________________________________________________________________________________
batch_normalization_26 (BatchNormalization)                       (None, 14, 14, 384)                         1536        
__________________________________________________________________________________________________________________________
lambda_76 (Lambda)                                                (None, 14, 14, 384)                         0           
__________________________________________________________________________________________________________________________
activation_18 (Activation)                                        (None, 14, 14, 384)                         0           
__________________________________________________________________________________________________________________________
lambda_77 (Lambda)                                                (None, 14, 14, 384)                         0           
__________________________________________________________________________________________________________________________
conv2d_18 (Conv2D)                                                (None, 14, 14, 64)                          24640       
__________________________________________________________________________________________________________________________
lambda_78 (Lambda)                                                (None, 14, 14, 64)                          0           
__________________________________________________________________________________________________________________________
batch_normalization_27 (BatchNormalization)                       (None, 14, 14, 64)                          256         
__________________________________________________________________________________________________________________________
lambda_79 (Lambda)                                                (None, 14, 14, 64)                          0           
__________________________________________________________________________________________________________________________
add_4 (Add)                                                       (None, 14, 14, 64)                          0                                                                                                                                     
__________________________________________________________________________________________________________________________
lambda_80 (Lambda)                                                (None, 14, 14, 64)                          0           
__________________________________________________________________________________________________________________________
conv2d_19 (Conv2D)                                                (None, 14, 14, 384)                         24960       
__________________________________________________________________________________________________________________________
lambda_81 (Lambda)                                                (None, 14, 14, 384)                         0           
__________________________________________________________________________________________________________________________
batch_normalization_28 (BatchNormalization)                       (None, 14, 14, 384)                         1536        
__________________________________________________________________________________________________________________________
lambda_82 (Lambda)                                                (None, 14, 14, 384)                         0           
__________________________________________________________________________________________________________________________
activation_19 (Activation)                                        (None, 14, 14, 384)                         0           
__________________________________________________________________________________________________________________________
lambda_83 (Lambda)                                                (None, 14, 14, 384)                         0           
__________________________________________________________________________________________________________________________
depthwise_conv2d_9 (DepthwiseConv2D)                              (None, 14, 14, 384)                         3840        
__________________________________________________________________________________________________________________________
lambda_84 (Lambda)                                                (None, 14, 14, 384)                         0           
__________________________________________________________________________________________________________________________
batch_normalization_29 (BatchNormalization)                       (None, 14, 14, 384)                         1536        
__________________________________________________________________________________________________________________________
lambda_85 (Lambda)                                                (None, 14, 14, 384)                         0           
__________________________________________________________________________________________________________________________
activation_20 (Activation)                                        (None, 14, 14, 384)                         0           
__________________________________________________________________________________________________________________________
lambda_86 (Lambda)                                                (None, 14, 14, 384)                         0           
__________________________________________________________________________________________________________________________
conv2d_20 (Conv2D)                                                (None, 14, 14, 64)                          24640       
__________________________________________________________________________________________________________________________
lambda_87 (Lambda)                                                (None, 14, 14, 64)                          0           
__________________________________________________________________________________________________________________________
batch_normalization_30 (BatchNormalization)                       (None, 14, 14, 64)                          256         
__________________________________________________________________________________________________________________________
lambda_88 (Lambda)                                                (None, 14, 14, 64)                          0           
__________________________________________________________________________________________________________________________
add_5 (Add)                                                       (None, 14, 14, 64)                          0                                                                                                                                     
__________________________________________________________________________________________________________________________
lambda_89 (Lambda)                                                (None, 14, 14, 64)                          0           
__________________________________________________________________________________________________________________________
conv2d_21 (Conv2D)                                                (None, 14, 14, 384)                         24960       
__________________________________________________________________________________________________________________________
lambda_90 (Lambda)                                                (None, 14, 14, 384)                         0           
__________________________________________________________________________________________________________________________
batch_normalization_31 (BatchNormalization)                       (None, 14, 14, 384)                         1536        
__________________________________________________________________________________________________________________________
lambda_91 (Lambda)                                                (None, 14, 14, 384)                         0           
__________________________________________________________________________________________________________________________
activation_21 (Activation)                                        (None, 14, 14, 384)                         0           
__________________________________________________________________________________________________________________________
lambda_92 (Lambda)                                                (None, 14, 14, 384)                         0           
__________________________________________________________________________________________________________________________
depthwise_conv2d_10 (DepthwiseConv2D)                             (None, 14, 14, 384)                         3840        
__________________________________________________________________________________________________________________________
lambda_93 (Lambda)                                                (None, 14, 14, 384)                         0           
__________________________________________________________________________________________________________________________
batch_normalization_32 (BatchNormalization)                       (None, 14, 14, 384)                         1536        
__________________________________________________________________________________________________________________________
lambda_94 (Lambda)                                                (None, 14, 14, 384)                         0           
__________________________________________________________________________________________________________________________
activation_22 (Activation)                                        (None, 14, 14, 384)                         0           
__________________________________________________________________________________________________________________________
lambda_95 (Lambda)                                                (None, 14, 14, 384)                         0           
__________________________________________________________________________________________________________________________
conv2d_22 (Conv2D)                                                (None, 14, 14, 96)                          36960       
__________________________________________________________________________________________________________________________
lambda_96 (Lambda)                                                (None, 14, 14, 96)                          0           
__________________________________________________________________________________________________________________________
batch_normalization_33 (BatchNormalization)                       (None, 14, 14, 96)                          384         
__________________________________________________________________________________________________________________________
lambda_97 (Lambda)                                                (None, 14, 14, 96)                          0           
__________________________________________________________________________________________________________________________
conv2d_23 (Conv2D)                                                (None, 14, 14, 576)                         55872       
__________________________________________________________________________________________________________________________
lambda_98 (Lambda)                                                (None, 14, 14, 576)                         0           
__________________________________________________________________________________________________________________________
batch_normalization_34 (BatchNormalization)                       (None, 14, 14, 576)                         2304        
__________________________________________________________________________________________________________________________
lambda_99 (Lambda)                                                (None, 14, 14, 576)                         0           
__________________________________________________________________________________________________________________________
activation_23 (Activation)                                        (None, 14, 14, 576)                         0           
__________________________________________________________________________________________________________________________
lambda_100 (Lambda)                                               (None, 14, 14, 576)                         0           
__________________________________________________________________________________________________________________________
depthwise_conv2d_11 (DepthwiseConv2D)                             (None, 14, 14, 576)                         5760        
__________________________________________________________________________________________________________________________
lambda_101 (Lambda)                                               (None, 14, 14, 576)                         0           
__________________________________________________________________________________________________________________________
batch_normalization_35 (BatchNormalization)                       (None, 14, 14, 576)                         2304        
__________________________________________________________________________________________________________________________
lambda_102 (Lambda)                                               (None, 14, 14, 576)                         0           
__________________________________________________________________________________________________________________________
activation_24 (Activation)                                        (None, 14, 14, 576)                         0           
__________________________________________________________________________________________________________________________
lambda_103 (Lambda)                                               (None, 14, 14, 576)                         0           
__________________________________________________________________________________________________________________________
conv2d_24 (Conv2D)                                                (None, 14, 14, 96)                          55392       
__________________________________________________________________________________________________________________________
lambda_104 (Lambda)                                               (None, 14, 14, 96)                          0           
__________________________________________________________________________________________________________________________
batch_normalization_36 (BatchNormalization)                       (None, 14, 14, 96)                          384         
__________________________________________________________________________________________________________________________
lambda_105 (Lambda)                                               (None, 14, 14, 96)                          0           
__________________________________________________________________________________________________________________________
add_6 (Add)                                                       (None, 14, 14, 96)                          0                                                                                                                                     
__________________________________________________________________________________________________________________________
lambda_106 (Lambda)                                               (None, 14, 14, 96)                          0           
__________________________________________________________________________________________________________________________
conv2d_25 (Conv2D)                                                (None, 14, 14, 576)                         55872       
__________________________________________________________________________________________________________________________
lambda_107 (Lambda)                                               (None, 14, 14, 576)                         0           
__________________________________________________________________________________________________________________________
batch_normalization_37 (BatchNormalization)                       (None, 14, 14, 576)                         2304        
__________________________________________________________________________________________________________________________
lambda_108 (Lambda)                                               (None, 14, 14, 576)                         0           
__________________________________________________________________________________________________________________________
activation_25 (Activation)                                        (None, 14, 14, 576)                         0           
__________________________________________________________________________________________________________________________
lambda_109 (Lambda)                                               (None, 14, 14, 576)                         0           
__________________________________________________________________________________________________________________________
depthwise_conv2d_12 (DepthwiseConv2D)                             (None, 14, 14, 576)                         5760        
__________________________________________________________________________________________________________________________
lambda_110 (Lambda)                                               (None, 14, 14, 576)                         0           
__________________________________________________________________________________________________________________________
batch_normalization_38 (BatchNormalization)                       (None, 14, 14, 576)                         2304        
__________________________________________________________________________________________________________________________
lambda_111 (Lambda)                                               (None, 14, 14, 576)                         0           
__________________________________________________________________________________________________________________________
activation_26 (Activation)                                        (None, 14, 14, 576)                         0           
__________________________________________________________________________________________________________________________
lambda_112 (Lambda)                                               (None, 14, 14, 576)                         0           
__________________________________________________________________________________________________________________________
conv2d_26 (Conv2D)                                                (None, 14, 14, 96)                          55392       
__________________________________________________________________________________________________________________________
lambda_113 (Lambda)                                               (None, 14, 14, 96)                          0           
__________________________________________________________________________________________________________________________
batch_normalization_39 (BatchNormalization)                       (None, 14, 14, 96)                          384         
__________________________________________________________________________________________________________________________
lambda_114 (Lambda)                                               (None, 14, 14, 96)                          0           
__________________________________________________________________________________________________________________________
add_7 (Add)                                                       (None, 14, 14, 96)                          0                                                                                                                                     
__________________________________________________________________________________________________________________________
lambda_115 (Lambda)                                               (None, 14, 14, 96)                          0           
__________________________________________________________________________________________________________________________
conv2d_27 (Conv2D)                                                (None, 14, 14, 576)                         55872       
__________________________________________________________________________________________________________________________
lambda_116 (Lambda)                                               (None, 14, 14, 576)                         0           
__________________________________________________________________________________________________________________________
batch_normalization_40 (BatchNormalization)                       (None, 14, 14, 576)                         2304        
__________________________________________________________________________________________________________________________
lambda_117 (Lambda)                                               (None, 14, 14, 576)                         0           
__________________________________________________________________________________________________________________________
activation_27 (Activation)                                        (None, 14, 14, 576)                         0           
__________________________________________________________________________________________________________________________
lambda_118 (Lambda)                                               (None, 14, 14, 576)                         0           
__________________________________________________________________________________________________________________________
depthwise_conv2d_13 (DepthwiseConv2D)                             (None, 7, 7, 576)                           5760        
__________________________________________________________________________________________________________________________
lambda_119 (Lambda)                                               (None, 7, 7, 576)                           0           
__________________________________________________________________________________________________________________________
batch_normalization_41 (BatchNormalization)                       (None, 7, 7, 576)                           2304        
__________________________________________________________________________________________________________________________
lambda_120 (Lambda)                                               (None, 7, 7, 576)                           0           
__________________________________________________________________________________________________________________________
activation_28 (Activation)                                        (None, 7, 7, 576)                           0           
__________________________________________________________________________________________________________________________
lambda_121 (Lambda)                                               (None, 7, 7, 576)                           0           
__________________________________________________________________________________________________________________________
conv2d_28 (Conv2D)                                                (None, 7, 7, 160)                           92320       
__________________________________________________________________________________________________________________________
lambda_122 (Lambda)                                               (None, 7, 7, 160)                           0           
__________________________________________________________________________________________________________________________
batch_normalization_42 (BatchNormalization)                       (None, 7, 7, 160)                           640         
__________________________________________________________________________________________________________________________
lambda_123 (Lambda)                                               (None, 7, 7, 160)                           0           
__________________________________________________________________________________________________________________________
conv2d_29 (Conv2D)                                                (None, 7, 7, 960)                           154560      
__________________________________________________________________________________________________________________________
lambda_124 (Lambda)                                               (None, 7, 7, 960)                           0           
__________________________________________________________________________________________________________________________
batch_normalization_43 (BatchNormalization)                       (None, 7, 7, 960)                           3840        
__________________________________________________________________________________________________________________________
lambda_125 (Lambda)                                               (None, 7, 7, 960)                           0           
__________________________________________________________________________________________________________________________
activation_29 (Activation)                                        (None, 7, 7, 960)                           0           
__________________________________________________________________________________________________________________________
lambda_126 (Lambda)                                               (None, 7, 7, 960)                           0           
__________________________________________________________________________________________________________________________
depthwise_conv2d_14 (DepthwiseConv2D)                             (None, 7, 7, 960)                           9600        
__________________________________________________________________________________________________________________________
lambda_127 (Lambda)                                               (None, 7, 7, 960)                           0           
__________________________________________________________________________________________________________________________
batch_normalization_44 (BatchNormalization)                       (None, 7, 7, 960)                           3840        
__________________________________________________________________________________________________________________________
lambda_128 (Lambda)                                               (None, 7, 7, 960)                           0           
__________________________________________________________________________________________________________________________
activation_30 (Activation)                                        (None, 7, 7, 960)                           0           
__________________________________________________________________________________________________________________________
lambda_129 (Lambda)                                               (None, 7, 7, 960)                           0           
__________________________________________________________________________________________________________________________
conv2d_30 (Conv2D)                                                (None, 7, 7, 160)                           153760      
__________________________________________________________________________________________________________________________
lambda_130 (Lambda)                                               (None, 7, 7, 160)                           0           
__________________________________________________________________________________________________________________________
batch_normalization_45 (BatchNormalization)                       (None, 7, 7, 160)                           640         
__________________________________________________________________________________________________________________________
lambda_131 (Lambda)                                               (None, 7, 7, 160)                           0           
__________________________________________________________________________________________________________________________
add_8 (Add)                                                       (None, 7, 7, 160)                           0                                                                                                                                     
__________________________________________________________________________________________________________________________
lambda_132 (Lambda)                                               (None, 7, 7, 160)                           0           
__________________________________________________________________________________________________________________________
conv2d_31 (Conv2D)                                                (None, 7, 7, 960)                           154560      
__________________________________________________________________________________________________________________________
lambda_133 (Lambda)                                               (None, 7, 7, 960)                           0           
__________________________________________________________________________________________________________________________
batch_normalization_46 (BatchNormalization)                       (None, 7, 7, 960)                           3840        
__________________________________________________________________________________________________________________________
lambda_134 (Lambda)                                               (None, 7, 7, 960)                           0           
__________________________________________________________________________________________________________________________
activation_31 (Activation)                                        (None, 7, 7, 960)                           0           
__________________________________________________________________________________________________________________________
lambda_135 (Lambda)                                               (None, 7, 7, 960)                           0           
__________________________________________________________________________________________________________________________
depthwise_conv2d_15 (DepthwiseConv2D)                             (None, 7, 7, 960)                           9600        
__________________________________________________________________________________________________________________________
lambda_136 (Lambda)                                               (None, 7, 7, 960)                           0           
__________________________________________________________________________________________________________________________
batch_normalization_47 (BatchNormalization)                       (None, 7, 7, 960)                           3840        
__________________________________________________________________________________________________________________________
lambda_137 (Lambda)                                               (None, 7, 7, 960)                           0           
__________________________________________________________________________________________________________________________
activation_32 (Activation)                                        (None, 7, 7, 960)                           0           
__________________________________________________________________________________________________________________________
lambda_138 (Lambda)                                               (None, 7, 7, 960)                           0           
__________________________________________________________________________________________________________________________
conv2d_32 (Conv2D)                                                (None, 7, 7, 160)                           153760      
__________________________________________________________________________________________________________________________
lambda_139 (Lambda)                                               (None, 7, 7, 160)                           0           
__________________________________________________________________________________________________________________________
batch_normalization_48 (BatchNormalization)                       (None, 7, 7, 160)                           640         
__________________________________________________________________________________________________________________________
lambda_140 (Lambda)                                               (None, 7, 7, 160)                           0           
__________________________________________________________________________________________________________________________
add_9 (Add)                                                       (None, 7, 7, 160)                           0                                                                                                                                     
__________________________________________________________________________________________________________________________
lambda_141 (Lambda)                                               (None, 7, 7, 160)                           0           
__________________________________________________________________________________________________________________________
conv2d_33 (Conv2D)                                                (None, 7, 7, 960)                           154560      
__________________________________________________________________________________________________________________________
lambda_142 (Lambda)                                               (None, 7, 7, 960)                           0           
__________________________________________________________________________________________________________________________
batch_normalization_49 (BatchNormalization)                       (None, 7, 7, 960)                           3840        
__________________________________________________________________________________________________________________________
lambda_143 (Lambda)                                               (None, 7, 7, 960)                           0           
__________________________________________________________________________________________________________________________
activation_33 (Activation)                                        (None, 7, 7, 960)                           0           
__________________________________________________________________________________________________________________________
lambda_144 (Lambda)                                               (None, 7, 7, 960)                           0           
__________________________________________________________________________________________________________________________
depthwise_conv2d_16 (DepthwiseConv2D)                             (None, 7, 7, 960)                           9600        
__________________________________________________________________________________________________________________________
lambda_145 (Lambda)                                               (None, 7, 7, 960)                           0           
__________________________________________________________________________________________________________________________
batch_normalization_50 (BatchNormalization)                       (None, 7, 7, 960)                           3840        
__________________________________________________________________________________________________________________________
lambda_146 (Lambda)                                               (None, 7, 7, 960)                           0           
__________________________________________________________________________________________________________________________
activation_34 (Activation)                                        (None, 7, 7, 960)                           0           
__________________________________________________________________________________________________________________________
lambda_147 (Lambda)                                               (None, 7, 7, 960)                           0           
__________________________________________________________________________________________________________________________
conv2d_34 (Conv2D)                                                (None, 7, 7, 320)                           307520      
__________________________________________________________________________________________________________________________
lambda_148 (Lambda)                                               (None, 7, 7, 320)                           0           
__________________________________________________________________________________________________________________________
batch_normalization_51 (BatchNormalization)                       (None, 7, 7, 320)                           1280        
__________________________________________________________________________________________________________________________
lambda_149 (Lambda)                                               (None, 7, 7, 320)                           0           
__________________________________________________________________________________________________________________________
conv2d_35 (Conv2D)                                                (None, 7, 7, 1280)                          410880      
__________________________________________________________________________________________________________________________
lambda_150 (Lambda)                                               (None, 7, 7, 1280)                          0           
__________________________________________________________________________________________________________________________
batch_normalization_52 (BatchNormalization)                       (None, 7, 7, 1280)                          5120        
__________________________________________________________________________________________________________________________
lambda_151 (Lambda)                                               (None, 7, 7, 1280)                          0           
__________________________________________________________________________________________________________________________
activation_35 (Activation)                                        (None, 7, 7, 1280)                          0           
__________________________________________________________________________________________________________________________
lambda_152 (Lambda)                                               (None, 7, 7, 1280)                          0           
__________________________________________________________________________________________________________________________
global_average_pooling2d (GlobalAveragePooling2D)                 (None, 1280)                                0           
__________________________________________________________________________________________________________________________
lambda_153 (Lambda)                                               (None, 1280)                                0           
__________________________________________________________________________________________________________________________
reshape (Reshape)                                                 (None, 1, 1, 1280)                          0           
__________________________________________________________________________________________________________________________
lambda_154 (Lambda)                                               (None, 1, 1, 1280)                          0           
__________________________________________________________________________________________________________________________
Dropout (Dropout)                                                 (None, 1, 1, 1280)                          0           
__________________________________________________________________________________________________________________________
lambda_155 (Lambda)                                               (None, 1, 1, 1280)                          0           
__________________________________________________________________________________________________________________________
conv2d_36 (Conv2D)                                                (None, 1, 1, 100)                           128100      
__________________________________________________________________________________________________________________________
lambda_156 (Lambda)                                               (None, 1, 1, 100)                           0           
__________________________________________________________________________________________________________________________
softmax (Activation)                                              (None, 1, 1, 100)                           0           
__________________________________________________________________________________________________________________________
lambda_157 (Lambda)                                               (None, 1, 1, 100)                           0           
__________________________________________________________________________________________________________________________
dense (Dense)                                                     (None, 1, 1, 128)                           12928       
__________________________________________________________________________________________________________________________
lambda_158 (Lambda)                                               (None, 1, 1, 128)                           0           
__________________________________________________________________________________________________________________________
batch_normalization_53 (BatchNormalization)                       (None, 1, 1, 128)                           512         
__________________________________________________________________________________________________________________________
lambda_159 (Lambda)                                               (None, 1, 1, 128)                           0           
__________________________________________________________________________________________________________________________
dropout (Dropout)                                                 (None, 1, 1, 128)                           0           
__________________________________________________________________________________________________________________________
lambda_160 (Lambda)                                               (None, 1, 1, 128)                           0           
__________________________________________________________________________________________________________________________
dense_1 (Dense)                                                   (None, 1, 1, 100)                           12900       
__________________________________________________________________________________________________________________________
lambda_161 (Lambda)                                               (None, 1, 1, 100)                           0           
__________________________________________________________________________________________________________________________
reshape_1 (Reshape)                                               (None, 100)                                 0           
==========================================================================================================================
Total params: 2,430,664
Trainable params: 2,396,232
Non-trainable params: 34,432
__________________________________________________________________________________________________________________________
None
